data/params/quant_gan/netD.pth (torch, 664310 bytes, 59 tensors)

net.conv.weight f4 [1, 80, 1]
000000 0a d7 23 bc 0a d7 23 3c 0a d7 23 bc 0a d7 23 bc
       -0.01 0.01 -0.01 -0.01
000010 0a d7 23 bc ea 18 05 bc 0a d7 23 bc 0a d7 23 3c
       -0.01 -0.008123616 -0.01 0.01
000020 0a d7 23 3c 0a d7 23 bc 0a d7 23 3c 0a d7 23 bc
       0.01 -0.01 0.01 -0.01
000030 0a d7 23 bc 0a d7 23 3c 0a d7 23 bc 0a d7 23 3c
       -0.01 0.01 -0.01 0.01
000040 0a d7 23 3c 0a d7 23 bc 0a d7 23 3c 0a d7 23 3c
       0.01 -0.01 0.01 0.01
000050 0a d7 23 bc 0a d7 23 3c 0a d7 23 bc 32 d4 bc 3a
       -0.01 0.01 -0.01 0.0014406501
000060 0a d7 23 bc 0a d7 23 3c 0a d7 23 bc 0a d7 23 bc
       -0.01 0.01 -0.01 -0.01
000070 0a d7 23 3c 0a d7 23 3c 0a d7 23 3c 0a d7 23 bc
       0.01 0.01 0.01 -0.01
000080 0a d7 23 3c 0a d7 23 3c 0a d7 23 bc 0a d7 23 bc
       0.01 0.01 -0.01 -0.01
000090 0a d7 23 3c 0a d7 23 3c 0a d7 23 bc 0a d7 23 bc
       0.01 0.01 -0.01 -0.01
0000a0 0a d7 23 3c 0a d7 23 3c 0a d7 23 3c 0a d7 23 3c
       0.01 0.01 0.01 0.01
0000b0 0a d7 23 3c 0a d7 23 bc 0a d7 23 3c 0a d7 23 bc
       0.01 -0.01 0.01 -0.01
0000c0 0a d7 23 3c 0a d7 23 3c 0a d7 23 3c d4 c2 ce bb
       0.01 0.01 0.01 -0.0063098464
0000d0 0a d7 23 3c 0a d7 23 bc 0a d7 23 bc 0a d7 23 bc
       0.01 -0.01 -0.01 -0.01
0000e0 0a d7 23 3c 0a d7 23 bc 0a d7 23 3c 0a d7 23 3c
       0.01 -0.01 0.01 0.01
0000f0 0a d7 23 3c 0a d7 23 3c 0a d7 23 bc 0a d7 23 bc
       0.01 0.01 -0.01 -0.01
000100 0a d7 23 3c 0a d7 23 bc 0a d7 23 3c 0a d7 23 3c
       0.01 -0.01 0.01 0.01
000110 0a d7 23 3c 0a d7 23 3c 0a d7 23 3c 0a d7 23 3c
       0.01 0.01 0.01 0.01
000120 0a d7 23 bc 0a d7 23 3c 0a d7 23 bc 0a d7 23 bc
       -0.01 0.01 -0.01 -0.01
000130 0a d7 23 3c 0a d7 23 bc 0a d7 23 bc 0a d7 23 3c
       0.01 -0.01 -0.01 0.01

net.net.0.conv1.weight f4 [80, 1, 1]
000000 51 f2 bf 3b 58 64 c8 ba 11 e9 fa bb d9 d5 01 bc
       0.005857744 -0.0015288694 -0.007657178 -0.00792452
000010 18 63 2f bb 31 e6 9e 3b 91 88 86 bb 2a c2 b0 3b
       -0.0026761945 0.0048492183 -0.0041056355 0.00539424
000020 0a d7 23 3c aa f8 ef bb 7c 2e 53 bb 0a d7 23 3c
       0.01 -0.0073233442 -0.0032223752 0.01
000030 cb 3e c0 3b b4 d1 21 3b cf 11 4d bb e0 c0 b0 3b
       0.0058668605 0.0024691643 -0.0031291132 0.0053940862
000040 0a d7 23 3c d4 e7 e0 3b 0a d7 23 bc fa 27 72 bb
       0.01 0.0068635736 -0.01 -0.0036950097
000050 b3 b6 78 bb 07 05 90 bb ae d3 b5 3b 39 34 85 3b
       -0.0037950694 -0.0043951306 0.005548916 0.0040650633
000060 0a d7 23 3c 0a d7 23 3c 88 73 c7 3b 4b a8 83 3b
       0.01 0.01 0.0060867704 0.004017865
000070 43 56 1d bb 17 7b 56 3b 36 71 03 bc 90 6a e9 bb
       -0.0024007715 0.0032727176 -0.008022597 -0.007123299
000080 b5 e8 ad bb dc 86 ca bb 0a d7 23 3c cf 64 23 3b
       -0.005307282 -0.0061806273 0.01 0.0024931913
000090 7d d0 48 bb 0a d7 23 3c 33 de e5 ba 67 8d b7 3b
       -0.0030641847 0.01 -0.0017537534 0.0056015733
0000a0 0a d7 23 bc 80 1f c4 3b 07 fb d9 3a 71 45 a1 3b
       -0.01 0.0059852004 0.0016630598 0.004921608
0000b0 4b 5e 38 3b 0a d7 23 bc a5 e7 d1 3b 0a d7 23 3c
       0.0028132375 -0.01 0.006405788 0.01
0000c0 74 c0 0c bc c9 a4 25 3b 0a d7 23 3c 0a d7 23 bc
       -0.008590806 0.0025275222 0.01 -0.01
0000d0 0a d7 23 bc af 33 ef bb 31 30 eb 3b cc 6a f6 bb
       -0.01 -0.0072998623 0.0071773757 -0.0075200554
0000e0 f6 db ac 3b 95 e7 2f 3b 69 fc 68 3b c5 1c 50 bb
       0.005275245 0.0026840915 0.0035550839 -0.003175543
0000f0 0a d7 23 3c 01 4a 3b 3b 63 dc 8d 3b 5f 1f 0f 3b
       0.01 0.0028578045 0.0043292507 0.0021838767
000100 17 0b 85 bb 55 34 08 bc 0a d7 23 3c 6f 38 92 bb
       -0.00406016 -0.008313258 0.01 -0.004462294
000110 9a db 05 bc b1 d2 e6 3b 84 24 be 3b 3d 94 bd 3b
       -0.008170033 0.0070441593 0.005802693 0.0057854936
000120 0a d7 23 3c f2 77 cd 3b 3b 60 50 3a 0a d7 23 3c
       0.01 0.006270402 0.000794891 0.01
000130 75 41 1c 3b a6 98 03 bc fa 98 cd bb 3e 07 5d bb
       0.0023842726 -0.008032 -0.0062743397 -0.003372624

net.net.0.conv1.bias f4 [80]
000000 b5 2f ed 3b 26 dc d1 3b a6 26 1c bc c8 40 21 bc
       0.007238353 0.0064044176 -0.009530699 -0.009842105
000010 3c 11 b9 3b f4 b0 19 bc 08 02 01 bc b1 36 eb 3b
       0.0056478065 -0.009380568 -0.007874019 0.0071781506
000020 e2 45 9a b9 a5 d3 f8 bb 3c 7f cf 3b 68 a4 5d 39
       -0.00029425236 -0.0075935894 0.006332306 0.00021137448
000030 84 0f f2 3b 35 bf e7 3b c0 b0 99 3b b0 95 ef 3b
       0.0073871035 0.007072354 0.0046902597 0.0073115453
000040 fe ba e2 b9 2b b8 f5 3b b3 27 a3 39 dd 84 c4 3b
       -0.000432454 0.007498761 0.0003111936 0.005997284
000050 fa 41 fd bb 9a 48 99 3b f9 80 ef 3b 03 d0 ea 3b
       -0.0077288123 0.0046778442 0.007309076 0.00716591
000060 33 5f 9f b9 34 93 62 39 38 d1 18 bc f5 7c 10 bc
       -0.00030397772 0.00021607877 -0.009327225 -0.008818855
000070 f5 a0 d6 3b e4 3d f9 bb eb d0 0f bc 35 3b 0f bc
       0.0065499493 -0.007606255 -0.008777837 -0.008742143
000080 39 5d fa bb e8 b6 f4 bb f8 b5 65 39 02 51 9d 3b
       -0.0076405075 -0.007468093 0.0002190693 0.0048009166
000090 4b c3 07 bc 77 bb 9a b9 91 10 7f 3b 9f 18 ed 3b
       -0.008286308 -0.0002951284 0.0038919786 0.007235601
0000a0 a3 3b ad 39 59 23 f0 3b f2 ab e4 3b 81 61 d2 bb
       0.00033041564 0.0073284325 0.0069785053 -0.006420315
0000b0 d5 4a 13 bc 88 30 9d 39 ef aa 17 bc 4f 01 bc b9
       -0.008990009 0.00029981532 -0.009257062 -0.0003585913
0000c0 eb d2 04 bc d9 43 e4 3b e3 ab ac b9 bf 37 9d 39
       -0.008106927 0.006966096 -0.00032934462 0.00029986908
0000d0 6f d9 a2 39 d5 01 0d bc 4c f9 fa 3b 49 af 04 bc
       0.00031061049 -0.008606394 0.007659113 -0.008098432
0000e0 69 49 e6 3b 1e 4a e3 3b 37 ed 12 bc 46 b2 c0 3b
       0.007027794 0.0069363257 -0.008967689 0.005880627
0000f0 d9 e2 99 b9 1a 62 eb 3b 19 5f e9 3b 2d 77 e6 3b
       -0.0002935145 0.0071833255 0.007121932 0.00703325
000100 c0 05 8e 3b a2 cb 1b bc 3f 1a 9e b9 81 89 05 bc
       0.0043341815 -0.009508999 -0.00030155663 -0.008150459
000110 27 9e 0d bc c6 28 13 bc 90 16 f2 3b 32 db ed 3b
       -0.0086436635 -0.008981889 0.0073879436 0.007258796
000120 41 2f a0 b9 8d 75 f3 3b 8d f5 0c bc ec 10 a7 b9
       -0.00030552785 0.0074297846 -0.008603466 -0.0003186533
000130 6d 2d e3 3b 16 72 09 bc 1d e3 f2 bb 6b 12 cf 3b
       0.0069329054 -0.008389017 -0.007412328 0.0063193343

net.net.0.conv2.weight f4 [80, 80, 1]
000000 ea d6 ae bb 05 93 d9 3b 8d 7f 83 bb fe c9 ff bb
       -0.0053356783 0.0066398405 -0.004013008 -0.0078060618
000010 be f5 dd 3b ff 91 26 3b 60 20 0d bc 12 93 90 ba
       0.0067736795 0.002541661 -0.008613676 -0.0011030158
000020 0a d7 23 bc 84 0b c6 3b e7 2e 57 3b 0a d7 23 bc
       -0.01 0.0060438532 0.0032834352 -0.01
000030 da 6b 9b bb 40 3e e0 3b fa a7 96 ba c4 bd a6 bb
       -0.0047430815 0.0068433583 -0.0011494153 -0.00508854
000040 0a d7 23 bc e2 ca fb 3b 0a d7 23 bc 79 42 98 ba
       -0.01 0.0076840976 -0.01 -0.001161649
000050 93 a0 03 bc bd 27 c9 3b 26 52 a1 bb cf 5b 85 3b
       -0.008033889 0.0061387704 -0.004923123 0.0040697823
000060 0a d7 23 bc 0a d7 23 bc 09 3e 14 bc 07 20 d4 ba
       -0.01 -0.01 -0.009047993 -0.0016183861
000070 47 ac f6 bb 1e 40 d1 3b 9d fb c2 3b c6 46 4d bb
       -0.0075278613 0.006385817 0.005950405 -0.0031322702
000080 0f 92 0d 3c 66 3f 40 3b 0a d7 23 bc 3e a6 de 3b
       0.00864078 0.0029334663 -0.01 0.00679472
000090 2c ae 07 bc 0a d7 23 bc cf 7d f2 bb c2 4d ec 3b
       -0.008281272 -0.01 -0.0074002515 0.007211418
0000a0 0a d7 23 bc c8 ca aa bb 13 4f a7 ba b3 1e 01 3c
       -0.01 -0.0052121617 -0.0012764655 0.007880854
0000b0 41 11 03 3c 0a d7 23 bc 0c 07 f8 3b 0a d7 23 bc
       0.007999719 -0.01 0.0075691994 -0.01
0000c0 df ef 96 bb bb 1e 90 3b 0a d7 23 bc 0a d7 23 bc
       -0.0046062316 0.0043981946 -0.01 -0.01
0000d0 0a d7 23 bc e6 75 9a 3b f5 e9 01 3c 7c f0 82 3b
       -0.01 0.0047137616 0.007929315 0.003995953
0000e0 29 b5 9c bb 9a 11 9c bb 03 48 8b 3b 73 c9 03 bc
       -0.004782338 -0.0047628405 0.004250528 -0.008043635
0000f0 0a d7 23 bc 93 88 39 bb d9 a3 9a bb 19 de fa 3b
       -0.01 -0.0028310164 -0.004719239 0.0076558706
000100 64 6a cd 3b 48 aa 31 3b 0a d7 23 bc eb c4 11 3c
       0.0062687863 0.0027109552 -0.01 0.008897047
000110 61 86 00 bc ef 08 03 bb c4 8a 9a bb 31 6d a8 ba
       -0.007844538 -0.0019994339 -0.004716249 -0.0012849924
000120 0a d7 23 bc 46 8c ed 3b 64 d4 9f 3b 0a d7 23 bc
       -0.01 0.007249388 0.004877614 -0.01
000130 68 e8 96 bb 9b 10 83 bb 0b 6e bb 3a eb 49 9c bb
       -0.0046053417 -0.0039997823 0.0014299763 -0.004769554
000140 0f a8 19 bc fa 4f 09 3c 55 b2 23 bc 33 b5 e1 39
       -0.009378447 0.008380884 -0.009991248 0.00043050348
000150 95 49 b5 3a 55 f4 97 bb 74 33 b8 bb 95 96 5c ba
       0.0013831133 -0.004637281 -0.005621368 -0.00084147725
000160 0a d7 23 3c db b3 23 bc d6 ad 13 bb 0a d7 23 3c
       0.01 -0.009991611 -0.0022534034 0.01
000170 53 f9 3b 3b 39 f3 1c 3c d3 9d 1c bc 24 38 c9 3b
       0.0028682544 0.009579473 -0.009559113 0.0061407257
000180 0a d7 23 3c 1b 33 16 3c d5 73 21 3c 84 32 de 39
       0.01 0.009167458 0.009854277 0.00042380777
000190 41 cf 82 3a 80 9c 9a ba 1b 77 15 3c 20 9d d4 39
       0.0009979979 -0.0011795908 0.009122635 0.00040552858
0001a0 0a d7 23 3c 0a d7 23 3c 9b 93 23 bc 05 36 ef 3b
       0.01 0.01 -0.009983922 0.007300141
0001b0 f6 29 b4 b9 f7 1c 22 3a de 8a 23 3c 78 a4 2e 3b
       -0.0003436354 0.00061841257 0.009981839 0.0026648324
0001c0 cb 89 05 bc c1 69 99 bb 0a d7 23 3c a1 5b 1c 3c
       -0.008150528 -0.0046817963 0.01 0.00954333
0001d0 06 b6 7d bb 0a d7 23 3c f7 74 15 b9 5f cc 1a bc
       -0.003871323 0.01 -0.0001425332 -0.00944814
0001e0 0a d7 23 3c fa 62 bd 3b 0d 9b 1b bc 84 9d 23 bc
       0.01 0.005779621 -0.009497416 -0.009986285
0001f0 dc ce 23 3c 0a d7 23 3c b3 b0 02 3c 0a d7 23 3c
       0.00999805 0.01 0.007976699 0.01
000200 ff b4 23 bc 58 9a 3b bb 0a d7 23 3c 0a d7 23 3c
       -0.009991883 -0.0028625932 0.01 0.01
000210 f7 80 07 3c bb cf 99 bb 10 a4 d6 bb 30 b0 23 bc
       0.008270494 -0.004693953 -0.0065503195 -0.009990737
000220 c6 8e 57 3b e1 9f 19 3c 21 90 ab b9 2a 6a 1e 3c
       0.0032891496 0.009376497 -0.00032723046 0.009668866
000230 0a d7 23 3c 1e e6 d8 bb 26 10 01 3c f0 87 68 b8
       0.01 -0.006619229 0.007877385 -5.5439712e-05
000240 0e 55 19 bc 90 b1 23 bc 24 e9 1b 3c 06 93 16 3b
       -0.0093586575 -0.009991065 0.009516034 0.0022975816
000250 48 e9 a1 3b ee f3 ca 3b af 36 72 bb ae a2 9a bb
       0.0049411394 0.0061936295 -0.0036958863 -0.0047191
000260 0a d7 23 3c ea 52 d8 3b 7b b9 23 bc 0a d7 23 3c
       0.01 0.006601681 -0.009992952 0.01
000270 4a ec 2b 3a 62 93 23 3c 64 10 90 bb 6d 68 6d bb
       0.0006558342 0.009983869 -0.004396485 -0.0036225573
000280 15 ab 9c bb a7 e2 e4 bb 99 0b 01 bb 3f bf 97 bb
       -0.0047811368 -0.006985027 -0.001969075 -0.0046309526
000290 f5 00 c5 bb 09 62 14 bc bd de 0a 3b 00 8d fa 3b
       -0.006012077 -0.0090565765 0.0021189891 0.007646203
0002a0 0a d7 23 bc 28 e1 04 ba d8 1c b7 3b 0a d7 23 bc
       -0.01 -0.0005068951 0.0055881552 -0.01
0002b0 09 18 81 bb eb e0 86 3b 3e e7 a1 3b 61 2e 91 bb
       -0.003939633 0.004116168 0.0049408963 -0.0044305776
0002c0 0a d7 23 bc e5 d5 f6 3b 0a d7 23 bc f4 aa e7 bb
       -0.01 0.0075328224 -0.01 -0.0070699397
0002d0 f9 00 a1 bb c4 34 c7 3b 8f 07 1e bb b5 40 3c bb
       -0.004913446 0.006079288 -0.0024113392 -0.0028725092
0002e0 0a d7 23 bc 0a d7 23 bc 9b d3 ab 3b 77 d8 8a bb
       -0.01 -0.01 0.005243731 -0.0042372304
0002f0 38 07 69 3b 61 ed 1d bc 94 1d 5e 3b 3b fd 12 3c
       0.0035557281 -0.009639115 0.0033892142 0.008971508
000300 d1 31 02 bc 44 5e 0f 3c 0a d7 23 bc 22 a3 e6 3b
       -0.0079464475 0.008750502 -0.01 0.00703849
000310 fb de 06 3c 0a d7 23 bc b0 0f 01 bc c3 a7 f5 3b
       0.008231874 -0.01 -0.007877275 0.0074968054
000320 0a d7 23 bc b4 53 37 3b 2b d2 2d 3b 14 d7 1b bc
       -0.01 0.0027973475 0.0026522975 -0.009511728
000330 2e ce 45 ba 0a d7 23 bc 18 ee fb 3b 0a d7 23 bc
       -0.0007545677 -0.01 0.007688295 -0.01
000340 9f af d6 bb 42 aa 2c 3b 0a d7 23 bc 0a d7 23 bc
       -0.0065516974 0.0026346599 -0.01 -0.01
000350 0a d7 23 bc d9 05 15 3c af 68 03 3c 65 50 58 bb
       -0.01 0.0090956325 0.008020564 -0.0033006903
000360 9e c3 db ba b7 e9 ff 3b 8c aa f3 3a 2e 56 04 bc
       -0.0016766672 0.0078098434 0.0018590256 -0.008077187
000370 0a d7 23 bc 43 fe 7a bb 38 8b 74 bb 9c bc 6f bb
       -0.01 -0.0038298524 -0.0037314426 -0.0036580926
000380 0e 27 ed 38 e5 ca fa 3b 0a d7 23 bc 33 96 08 bc
       0.00011308315 0.0076535814 -0.01 -0.0083365915
000390 8b d7 6f 3a 5b ad 9d 3b 7b da 87 bb 3c c3 58 ba
       0.0009149245 0.0048119253 -0.004145918 -0.0008268838
0003a0 0a d7 23 bc c4 90 8c bb a7 5c d9 3b 0a d7 23 bc
       -0.01 -0.0042897183 0.0066333595 -0.01
0003b0 be 9d 9b 3b 3d 67 15 3c 18 2a 04 bc f5 e8 bc bb
       0.004749029 0.009118852 -0.008066677 -0.0057650753
0003c0 bc 9a f7 3b 39 a3 e2 3b a4 6d aa 3b e8 2e 07 3c
       0.0075562876 0.0069164303 0.0052010585 0.008250929
0003d0 7e df 90 3b 22 f1 11 bc 12 9f 12 3c 62 15 87 bb
       0.0044211736 -0.008907588 0.008949058 -0.004122422
0003e0 0a d7 23 bc 64 15 17 3c e7 34 17 bc 0a d7 23 bc
       -0.01 0.0092214085 -0.0092289215 -0.01
0003f0 9b 49 8c bb 31 d3 dc bb 2a 8f 12 bc 7d de 63 bb
       -0.0042812354 -0.006739043 -0.008945266 -0.0034770065

net.net.0.conv2.bias f4 [80]
000000 21 ac 0c 3c 2c f1 05 bc eb cf 0b 3c 19 95 0e 3c
       0.008585961 -0.008175176 0.008533458 0.00870254
000010 c5 d4 ec bb c0 c4 21 bc 0a 46 0a 3c a6 36 ff bb
       -0.0072275125 -0.009873569 0.00843955 -0.007788497
000020 0c 3b 05 3c ec 3d db bb b3 f0 04 3c 2b 19 cf bb
       0.008131754 -0.0066907313 0.008114028 -0.006320139
000030 c3 81 dc bb 32 ce fe 3b 6c 2c 0e 3c 4d 06 01 3c
       -0.006729336 0.0077760452 0.008677583 0.007875037
000040 e4 8a 05 3c 28 00 0c 3c 57 a7 07 3c 68 cc 06 bc
       0.00815079 0.008544959 0.008279643 -0.008227445
000050 b6 e9 0d 3c 33 ae 1a bc a8 cc 0b 3c 45 59 22 bc
       0.008661678 -0.009440946 0.008532681 -0.009908979
000060 9c 85 0b 3c 52 14 0e bc 86 1f 0b bc d8 7f 2c bb
       0.008515742 -0.008671837 -0.0084914025 -0.0026321318
000070 08 80 12 bc 44 ec 06 3c 23 03 fe 3b 4d 7d fb bb
       -0.008941658 0.008235041 0.007751839 -0.007674849
000080 34 b7 cd bb e1 c5 04 3c 9e 87 0a 3c e4 5c 0b 3c
       -0.006277943 0.008103819 0.008455185 0.008506034
000090 5c ad 04 3c 2d 40 22 bc 81 eb 0b 3c db 91 ab bb
       0.008097973 -0.009902996 0.008540035 -0.005235893
0000a0 88 b2 03 3c ea 94 05 3c 39 c8 05 3c f4 6b 13 bc
       0.008038171 0.00815318 0.008165413 -0.008997906
0000b0 7c 25 11 bc e4 98 0e 3c de 1c 05 3c 8f 8d e9 bb
       -0.008859035 0.008703444 0.008124558 -0.007127471
0000c0 2a 26 05 3c d4 ff 00 3c 61 f1 03 3c 0a d7 23 bc
       0.008126775 0.007873494 0.008053155 -0.01
0000d0 d0 3b f4 3b 26 5e eb bb d3 c8 0a 3c f9 93 f8 bb
       0.0074534193 -0.007182854 0.008470732 -0.007585999
0000e0 62 cf f4 bb 03 f9 0e 3c 82 b9 10 bc dc 80 be bb
       -0.007471011 0.008726361 -0.008833291 -0.005813701
0000f0 6d dc 1e bc 35 c0 a1 3a b6 ab 29 bb 22 08 0d 3c
       -0.009696108 0.0012340607 -0.0025889701 0.008607896
000100 30 61 2a 3b 4a 03 0d 3c c5 83 0b bc 24 bc 12 bc
       0.002599787 0.008606741 -0.008515303 -0.008955989
000110 83 fa 10 bc bc 2a 00 3c 7f 58 03 3c 9d b0 e7 3b
       -0.008848789 0.007822689 0.008016705 0.0070706145
000120 04 16 cd bb 35 c3 18 bc 45 b8 0e 3c 02 c3 09 3c
       -0.006258728 -0.009323885 0.0087109255 0.00840831
000130 77 5a 18 bc 59 88 f6 bb e1 24 9e 3b 73 15 ef 3b
       -0.009298912 -0.007523578 0.0048261737 0.007296258

net.net.0.net.0.weight f4 [80, 1, 1]
000000 51 f2 bf 3b 58 64 c8 ba 11 e9 fa bb d9 d5 01 bc
       0.005857744 -0.0015288694 -0.007657178 -0.00792452
000010 18 63 2f bb 31 e6 9e 3b 91 88 86 bb 2a c2 b0 3b
       -0.0026761945 0.0048492183 -0.0041056355 0.00539424
000020 0a d7 23 3c aa f8 ef bb 7c 2e 53 bb 0a d7 23 3c
       0.01 -0.0073233442 -0.0032223752 0.01
000030 cb 3e c0 3b b4 d1 21 3b cf 11 4d bb e0 c0 b0 3b
       0.0058668605 0.0024691643 -0.0031291132 0.0053940862
000040 0a d7 23 3c d4 e7 e0 3b 0a d7 23 bc fa 27 72 bb
       0.01 0.0068635736 -0.01 -0.0036950097
000050 b3 b6 78 bb 07 05 90 bb ae d3 b5 3b 39 34 85 3b
       -0.0037950694 -0.0043951306 0.005548916 0.0040650633
000060 0a d7 23 3c 0a d7 23 3c 88 73 c7 3b 4b a8 83 3b
       0.01 0.01 0.0060867704 0.004017865
000070 43 56 1d bb 17 7b 56 3b 36 71 03 bc 90 6a e9 bb
       -0.0024007715 0.0032727176 -0.008022597 -0.007123299
000080 b5 e8 ad bb dc 86 ca bb 0a d7 23 3c cf 64 23 3b
       -0.005307282 -0.0061806273 0.01 0.0024931913
000090 7d d0 48 bb 0a d7 23 3c 33 de e5 ba 67 8d b7 3b
       -0.0030641847 0.01 -0.0017537534 0.0056015733
0000a0 0a d7 23 bc 80 1f c4 3b 07 fb d9 3a 71 45 a1 3b
       -0.01 0.0059852004 0.0016630598 0.004921608
0000b0 4b 5e 38 3b 0a d7 23 bc a5 e7 d1 3b 0a d7 23 3c
       0.0028132375 -0.01 0.006405788 0.01
0000c0 74 c0 0c bc c9 a4 25 3b 0a d7 23 3c 0a d7 23 bc
       -0.008590806 0.0025275222 0.01 -0.01
0000d0 0a d7 23 bc af 33 ef bb 31 30 eb 3b cc 6a f6 bb
       -0.01 -0.0072998623 0.0071773757 -0.0075200554
0000e0 f6 db ac 3b 95 e7 2f 3b 69 fc 68 3b c5 1c 50 bb
       0.005275245 0.0026840915 0.0035550839 -0.003175543
0000f0 0a d7 23 3c 01 4a 3b 3b 63 dc 8d 3b 5f 1f 0f 3b
       0.01 0.0028578045 0.0043292507 0.0021838767
000100 17 0b 85 bb 55 34 08 bc 0a d7 23 3c 6f 38 92 bb
       -0.00406016 -0.008313258 0.01 -0.004462294
000110 9a db 05 bc b1 d2 e6 3b 84 24 be 3b 3d 94 bd 3b
       -0.008170033 0.0070441593 0.005802693 0.0057854936
000120 0a d7 23 3c f2 77 cd 3b 3b 60 50 3a 0a d7 23 3c
       0.01 0.006270402 0.000794891 0.01
000130 75 41 1c 3b a6 98 03 bc fa 98 cd bb 3e 07 5d bb
       0.0023842726 -0.008032 -0.0062743397 -0.003372624

net.net.0.net.0.bias f4 [80]
000000 b5 2f ed 3b 26 dc d1 3b a6 26 1c bc c8 40 21 bc
       0.007238353 0.0064044176 -0.009530699 -0.009842105
000010 3c 11 b9 3b f4 b0 19 bc 08 02 01 bc b1 36 eb 3b
       0.0056478065 -0.009380568 -0.007874019 0.0071781506
000020 e2 45 9a b9 a5 d3 f8 bb 3c 7f cf 3b 68 a4 5d 39
       -0.00029425236 -0.0075935894 0.006332306 0.00021137448
000030 84 0f f2 3b 35 bf e7 3b c0 b0 99 3b b0 95 ef 3b
       0.0073871035 0.007072354 0.0046902597 0.0073115453
000040 fe ba e2 b9 2b b8 f5 3b b3 27 a3 39 dd 84 c4 3b
       -0.000432454 0.007498761 0.0003111936 0.005997284
000050 fa 41 fd bb 9a 48 99 3b f9 80 ef 3b 03 d0 ea 3b
       -0.0077288123 0.0046778442 0.007309076 0.00716591
000060 33 5f 9f b9 34 93 62 39 38 d1 18 bc f5 7c 10 bc
       -0.00030397772 0.00021607877 -0.009327225 -0.008818855
000070 f5 a0 d6 3b e4 3d f9 bb eb d0 0f bc 35 3b 0f bc
       0.0065499493 -0.007606255 -0.008777837 -0.008742143
000080 39 5d fa bb e8 b6 f4 bb f8 b5 65 39 02 51 9d 3b
       -0.0076405075 -0.007468093 0.0002190693 0.0048009166
000090 4b c3 07 bc 77 bb 9a b9 91 10 7f 3b 9f 18 ed 3b
       -0.008286308 -0.0002951284 0.0038919786 0.007235601
0000a0 a3 3b ad 39 59 23 f0 3b f2 ab e4 3b 81 61 d2 bb
       0.00033041564 0.0073284325 0.0069785053 -0.006420315
0000b0 d5 4a 13 bc 88 30 9d 39 ef aa 17 bc 4f 01 bc b9
       -0.008990009 0.00029981532 -0.009257062 -0.0003585913
0000c0 eb d2 04 bc d9 43 e4 3b e3 ab ac b9 bf 37 9d 39
       -0.008106927 0.006966096 -0.00032934462 0.00029986908
0000d0 6f d9 a2 39 d5 01 0d bc 4c f9 fa 3b 49 af 04 bc
       0.00031061049 -0.008606394 0.007659113 -0.008098432
0000e0 69 49 e6 3b 1e 4a e3 3b 37 ed 12 bc 46 b2 c0 3b
       0.007027794 0.0069363257 -0.008967689 0.005880627
0000f0 d9 e2 99 b9 1a 62 eb 3b 19 5f e9 3b 2d 77 e6 3b
       -0.0002935145 0.0071833255 0.007121932 0.00703325
000100 c0 05 8e 3b a2 cb 1b bc 3f 1a 9e b9 81 89 05 bc
       0.0043341815 -0.009508999 -0.00030155663 -0.008150459
000110 27 9e 0d bc c6 28 13 bc 90 16 f2 3b 32 db ed 3b
       -0.0086436635 -0.008981889 0.0073879436 0.007258796
000120 41 2f a0 b9 8d 75 f3 3b 8d f5 0c bc ec 10 a7 b9
       -0.00030552785 0.0074297846 -0.008603466 -0.0003186533
000130 6d 2d e3 3b 16 72 09 bc 1d e3 f2 bb 6b 12 cf 3b
       0.0069329054 -0.008389017 -0.007412328 0.0063193343

net.net.0.net.2.weight f4 [80, 80, 1]
000000 ea d6 ae bb 05 93 d9 3b 8d 7f 83 bb fe c9 ff bb
       -0.0053356783 0.0066398405 -0.004013008 -0.0078060618
000010 be f5 dd 3b ff 91 26 3b 60 20 0d bc 12 93 90 ba
       0.0067736795 0.002541661 -0.008613676 -0.0011030158
000020 0a d7 23 bc 84 0b c6 3b e7 2e 57 3b 0a d7 23 bc
       -0.01 0.0060438532 0.0032834352 -0.01
000030 da 6b 9b bb 40 3e e0 3b fa a7 96 ba c4 bd a6 bb
       -0.0047430815 0.0068433583 -0.0011494153 -0.00508854
000040 0a d7 23 bc e2 ca fb 3b 0a d7 23 bc 79 42 98 ba
       -0.01 0.0076840976 -0.01 -0.001161649
000050 93 a0 03 bc bd 27 c9 3b 26 52 a1 bb cf 5b 85 3b
       -0.008033889 0.0061387704 -0.004923123 0.0040697823
000060 0a d7 23 bc 0a d7 23 bc 09 3e 14 bc 07 20 d4 ba
       -0.01 -0.01 -0.009047993 -0.0016183861
000070 47 ac f6 bb 1e 40 d1 3b 9d fb c2 3b c6 46 4d bb
       -0.0075278613 0.006385817 0.005950405 -0.0031322702
000080 0f 92 0d 3c 66 3f 40 3b 0a d7 23 bc 3e a6 de 3b
       0.00864078 0.0029334663 -0.01 0.00679472
000090 2c ae 07 bc 0a d7 23 bc cf 7d f2 bb c2 4d ec 3b
       -0.008281272 -0.01 -0.0074002515 0.007211418
0000a0 0a d7 23 bc c8 ca aa bb 13 4f a7 ba b3 1e 01 3c
       -0.01 -0.0052121617 -0.0012764655 0.007880854
0000b0 41 11 03 3c 0a d7 23 bc 0c 07 f8 3b 0a d7 23 bc
       0.007999719 -0.01 0.0075691994 -0.01
0000c0 df ef 96 bb bb 1e 90 3b 0a d7 23 bc 0a d7 23 bc
       -0.0046062316 0.0043981946 -0.01 -0.01
0000d0 0a d7 23 bc e6 75 9a 3b f5 e9 01 3c 7c f0 82 3b
       -0.01 0.0047137616 0.007929315 0.003995953
0000e0 29 b5 9c bb 9a 11 9c bb 03 48 8b 3b 73 c9 03 bc
       -0.004782338 -0.0047628405 0.004250528 -0.008043635
0000f0 0a d7 23 bc 93 88 39 bb d9 a3 9a bb 19 de fa 3b
       -0.01 -0.0028310164 -0.004719239 0.0076558706
000100 64 6a cd 3b 48 aa 31 3b 0a d7 23 bc eb c4 11 3c
       0.0062687863 0.0027109552 -0.01 0.008897047
000110 61 86 00 bc ef 08 03 bb c4 8a 9a bb 31 6d a8 ba
       -0.007844538 -0.0019994339 -0.004716249 -0.0012849924
000120 0a d7 23 bc 46 8c ed 3b 64 d4 9f 3b 0a d7 23 bc
       -0.01 0.007249388 0.004877614 -0.01
000130 68 e8 96 bb 9b 10 83 bb 0b 6e bb 3a eb 49 9c bb
       -0.0046053417 -0.0039997823 0.0014299763 -0.004769554
000140 0f a8 19 bc fa 4f 09 3c 55 b2 23 bc 33 b5 e1 39
       -0.009378447 0.008380884 -0.009991248 0.00043050348
000150 95 49 b5 3a 55 f4 97 bb 74 33 b8 bb 95 96 5c ba
       0.0013831133 -0.004637281 -0.005621368 -0.00084147725
000160 0a d7 23 3c db b3 23 bc d6 ad 13 bb 0a d7 23 3c
       0.01 -0.009991611 -0.0022534034 0.01
000170 53 f9 3b 3b 39 f3 1c 3c d3 9d 1c bc 24 38 c9 3b
       0.0028682544 0.009579473 -0.009559113 0.0061407257
000180 0a d7 23 3c 1b 33 16 3c d5 73 21 3c 84 32 de 39
       0.01 0.009167458 0.009854277 0.00042380777
000190 41 cf 82 3a 80 9c 9a ba 1b 77 15 3c 20 9d d4 39
       0.0009979979 -0.0011795908 0.009122635 0.00040552858
0001a0 0a d7 23 3c 0a d7 23 3c 9b 93 23 bc 05 36 ef 3b
       0.01 0.01 -0.009983922 0.007300141
0001b0 f6 29 b4 b9 f7 1c 22 3a de 8a 23 3c 78 a4 2e 3b
       -0.0003436354 0.00061841257 0.009981839 0.0026648324
0001c0 cb 89 05 bc c1 69 99 bb 0a d7 23 3c a1 5b 1c 3c
       -0.008150528 -0.0046817963 0.01 0.00954333
0001d0 06 b6 7d bb 0a d7 23 3c f7 74 15 b9 5f cc 1a bc
       -0.003871323 0.01 -0.0001425332 -0.00944814
0001e0 0a d7 23 3c fa 62 bd 3b 0d 9b 1b bc 84 9d 23 bc
       0.01 0.005779621 -0.009497416 -0.009986285
0001f0 dc ce 23 3c 0a d7 23 3c b3 b0 02 3c 0a d7 23 3c
       0.00999805 0.01 0.007976699 0.01
000200 ff b4 23 bc 58 9a 3b bb 0a d7 23 3c 0a d7 23 3c
       -0.009991883 -0.0028625932 0.01 0.01
000210 f7 80 07 3c bb cf 99 bb 10 a4 d6 bb 30 b0 23 bc
       0.008270494 -0.004693953 -0.0065503195 -0.009990737
000220 c6 8e 57 3b e1 9f 19 3c 21 90 ab b9 2a 6a 1e 3c
       0.0032891496 0.009376497 -0.00032723046 0.009668866
000230 0a d7 23 3c 1e e6 d8 bb 26 10 01 3c f0 87 68 b8
       0.01 -0.006619229 0.007877385 -5.5439712e-05
000240 0e 55 19 bc 90 b1 23 bc 24 e9 1b 3c 06 93 16 3b
       -0.0093586575 -0.009991065 0.009516034 0.0022975816
000250 48 e9 a1 3b ee f3 ca 3b af 36 72 bb ae a2 9a bb
       0.0049411394 0.0061936295 -0.0036958863 -0.0047191
000260 0a d7 23 3c ea 52 d8 3b 7b b9 23 bc 0a d7 23 3c
       0.01 0.006601681 -0.009992952 0.01
000270 4a ec 2b 3a 62 93 23 3c 64 10 90 bb 6d 68 6d bb
       0.0006558342 0.009983869 -0.004396485 -0.0036225573
000280 15 ab 9c bb a7 e2 e4 bb 99 0b 01 bb 3f bf 97 bb
       -0.0047811368 -0.006985027 -0.001969075 -0.0046309526
000290 f5 00 c5 bb 09 62 14 bc bd de 0a 3b 00 8d fa 3b
       -0.006012077 -0.0090565765 0.0021189891 0.007646203
0002a0 0a d7 23 bc 28 e1 04 ba d8 1c b7 3b 0a d7 23 bc
       -0.01 -0.0005068951 0.0055881552 -0.01
0002b0 09 18 81 bb eb e0 86 3b 3e e7 a1 3b 61 2e 91 bb
       -0.003939633 0.004116168 0.0049408963 -0.0044305776
0002c0 0a d7 23 bc e5 d5 f6 3b 0a d7 23 bc f4 aa e7 bb
       -0.01 0.0075328224 -0.01 -0.0070699397
0002d0 f9 00 a1 bb c4 34 c7 3b 8f 07 1e bb b5 40 3c bb
       -0.004913446 0.006079288 -0.0024113392 -0.0028725092
0002e0 0a d7 23 bc 0a d7 23 bc 9b d3 ab 3b 77 d8 8a bb
       -0.01 -0.01 0.005243731 -0.0042372304
0002f0 38 07 69 3b 61 ed 1d bc 94 1d 5e 3b 3b fd 12 3c
       0.0035557281 -0.009639115 0.0033892142 0.008971508
000300 d1 31 02 bc 44 5e 0f 3c 0a d7 23 bc 22 a3 e6 3b
       -0.0079464475 0.008750502 -0.01 0.00703849
000310 fb de 06 3c 0a d7 23 bc b0 0f 01 bc c3 a7 f5 3b
       0.008231874 -0.01 -0.007877275 0.0074968054
000320 0a d7 23 bc b4 53 37 3b 2b d2 2d 3b 14 d7 1b bc
       -0.01 0.0027973475 0.0026522975 -0.009511728
000330 2e ce 45 ba 0a d7 23 bc 18 ee fb 3b 0a d7 23 bc
       -0.0007545677 -0.01 0.007688295 -0.01
000340 9f af d6 bb 42 aa 2c 3b 0a d7 23 bc 0a d7 23 bc
       -0.0065516974 0.0026346599 -0.01 -0.01
000350 0a d7 23 bc d9 05 15 3c af 68 03 3c 65 50 58 bb
       -0.01 0.0090956325 0.008020564 -0.0033006903
000360 9e c3 db ba b7 e9 ff 3b 8c aa f3 3a 2e 56 04 bc
       -0.0016766672 0.0078098434 0.0018590256 -0.008077187
000370 0a d7 23 bc 43 fe 7a bb 38 8b 74 bb 9c bc 6f bb
       -0.01 -0.0038298524 -0.0037314426 -0.0036580926
000380 0e 27 ed 38 e5 ca fa 3b 0a d7 23 bc 33 96 08 bc
       0.00011308315 0.0076535814 -0.01 -0.0083365915
000390 8b d7 6f 3a 5b ad 9d 3b 7b da 87 bb 3c c3 58 ba
       0.0009149245 0.0048119253 -0.004145918 -0.0008268838
0003a0 0a d7 23 bc c4 90 8c bb a7 5c d9 3b 0a d7 23 bc
       -0.01 -0.0042897183 0.0066333595 -0.01
0003b0 be 9d 9b 3b 3d 67 15 3c 18 2a 04 bc f5 e8 bc bb
       0.004749029 0.009118852 -0.008066677 -0.0057650753
0003c0 bc 9a f7 3b 39 a3 e2 3b a4 6d aa 3b e8 2e 07 3c
       0.0075562876 0.0069164303 0.0052010585 0.008250929
0003d0 7e df 90 3b 22 f1 11 bc 12 9f 12 3c 62 15 87 bb
       0.0044211736 -0.008907588 0.008949058 -0.004122422
0003e0 0a d7 23 bc 64 15 17 3c e7 34 17 bc 0a d7 23 bc
       -0.01 0.0092214085 -0.0092289215 -0.01
0003f0 9b 49 8c bb 31 d3 dc bb 2a 8f 12 bc 7d de 63 bb
       -0.0042812354 -0.006739043 -0.008945266 -0.0034770065

net.net.0.net.2.bias f4 [80]
000000 21 ac 0c 3c 2c f1 05 bc eb cf 0b 3c 19 95 0e 3c
       0.008585961 -0.008175176 0.008533458 0.00870254
000010 c5 d4 ec bb c0 c4 21 bc 0a 46 0a 3c a6 36 ff bb
       -0.0072275125 -0.009873569 0.00843955 -0.007788497
000020 0c 3b 05 3c ec 3d db bb b3 f0 04 3c 2b 19 cf bb
       0.008131754 -0.0066907313 0.008114028 -0.006320139
000030 c3 81 dc bb 32 ce fe 3b 6c 2c 0e 3c 4d 06 01 3c
       -0.006729336 0.0077760452 0.008677583 0.007875037
000040 e4 8a 05 3c 28 00 0c 3c 57 a7 07 3c 68 cc 06 bc
       0.00815079 0.008544959 0.008279643 -0.008227445
000050 b6 e9 0d 3c 33 ae 1a bc a8 cc 0b 3c 45 59 22 bc
       0.008661678 -0.009440946 0.008532681 -0.009908979
000060 9c 85 0b 3c 52 14 0e bc 86 1f 0b bc d8 7f 2c bb
       0.008515742 -0.008671837 -0.0084914025 -0.0026321318
000070 08 80 12 bc 44 ec 06 3c 23 03 fe 3b 4d 7d fb bb
       -0.008941658 0.008235041 0.007751839 -0.007674849
000080 34 b7 cd bb e1 c5 04 3c 9e 87 0a 3c e4 5c 0b 3c
       -0.006277943 0.008103819 0.008455185 0.008506034
000090 5c ad 04 3c 2d 40 22 bc 81 eb 0b 3c db 91 ab bb
       0.008097973 -0.009902996 0.008540035 -0.005235893
0000a0 88 b2 03 3c ea 94 05 3c 39 c8 05 3c f4 6b 13 bc
       0.008038171 0.00815318 0.008165413 -0.008997906
0000b0 7c 25 11 bc e4 98 0e 3c de 1c 05 3c 8f 8d e9 bb
       -0.008859035 0.008703444 0.008124558 -0.007127471
0000c0 2a 26 05 3c d4 ff 00 3c 61 f1 03 3c 0a d7 23 bc
       0.008126775 0.007873494 0.008053155 -0.01
0000d0 d0 3b f4 3b 26 5e eb bb d3 c8 0a 3c f9 93 f8 bb
       0.0074534193 -0.007182854 0.008470732 -0.007585999
0000e0 62 cf f4 bb 03 f9 0e 3c 82 b9 10 bc dc 80 be bb
       -0.007471011 0.008726361 -0.008833291 -0.005813701
0000f0 6d dc 1e bc 35 c0 a1 3a b6 ab 29 bb 22 08 0d 3c
       -0.009696108 0.0012340607 -0.0025889701 0.008607896
000100 30 61 2a 3b 4a 03 0d 3c c5 83 0b bc 24 bc 12 bc
       0.002599787 0.008606741 -0.008515303 -0.008955989
000110 83 fa 10 bc bc 2a 00 3c 7f 58 03 3c 9d b0 e7 3b
       -0.008848789 0.007822689 0.008016705 0.0070706145
000120 04 16 cd bb 35 c3 18 bc 45 b8 0e 3c 02 c3 09 3c
       -0.006258728 -0.009323885 0.0087109255 0.00840831
000130 77 5a 18 bc 59 88 f6 bb e1 24 9e 3b 73 15 ef 3b
       -0.009298912 -0.007523578 0.0048261737 0.007296258

net.net.0.downsample.weight f4 [80, 1, 1]
000000 87 f2 a9 ba 61 38 16 bb 38 72 0c 3c 0a 50 95 3b
       -0.0012965956 -0.0022921788 0.008572154 0.0045566605
000010 f2 99 13 3c e6 e0 84 bb 79 c1 0e 3c d0 c3 e8 bb
       0.009008871 -0.0040551303 0.00871312 -0.007103421
000020 cc 3d 17 bc ea a4 5b 3b ee f7 8d 3b 91 35 d4 bb
       -0.009231042 0.0033515044 0.004332534 -0.006476112
000030 0a f1 a3 bb 6f 33 0e bc 0c fc 9d b9 5b 20 12 bc
       -0.0050030993 -0.008679255 -0.00030133163 -0.008918847
000040 23 1b 12 bb 27 df a9 bb f8 8b ab 3b 93 d3 ed 39
       -0.0022294007 -0.0051840725 0.0052351914 0.00045361798
000050 d9 5e 94 bb ab 6a 18 3b 0d 6e 50 b9 08 ac 98 bb
       -0.0045279083 0.0023256938 -0.00019877423 -0.0046591796
000060 bd b3 ae bb 10 11 0f bc 4b 83 92 bb 2f 06 68 3b
       -0.005331485 -0.008732095 -0.0044712177 0.0035404076
000070 ea 8e 14 bc fb 71 a8 3b 95 67 0d bc ca f3 13 3c
       -0.0090672765 0.0051405407 -0.008630653 0.009030292
000080 e0 27 e1 bb a6 10 af b9 d7 11 0e 3c 52 35 16 bb
       -0.0068712085 -0.00033391005 0.008671246 -0.0022919965
000090 5e 6c d8 bb 0d 24 b4 3b 80 89 d4 3b 40 98 c9 bb
       -0.0066047153 0.0054974617 0.006486118 -0.006152183
0000a0 33 8a 3b ba c5 27 2c 3b 51 b0 80 3b f7 00 4e 3b
       -0.0007154077 0.0026268822 0.0039272686 0.003143368
0000b0 d4 f0 bb bb dc 37 25 3a d7 37 0a 3b 46 a8 03 3c
       -0.005735496 0.0006302574 0.0021090412 0.008035725
0000c0 9c 59 ac 3b a9 e3 0c bc 9e 53 01 bc 64 ca 6a ba
       0.0052597057 -0.0085992 -0.007893471 -0.000895655
0000d0 3a 0c 80 bb 69 fe d7 3b a8 6f 4b bb 98 86 04 3c
       -0.0039077075 0.0065916074 -0.0031041894 0.00808873
0000e0 62 cc c7 3b f2 a5 95 3b 6e 93 38 bb 81 e9 9c bb
       0.0060973624 0.0045669014 -0.0028164047 -0.004788578
0000f0 8b 33 06 bc 42 32 01 bc 43 ec 88 39 4d be b1 bb
       -0.008191 -0.007885518 0.0002611597 -0.005424297
000100 a3 6e aa 3b 94 39 72 3b e5 50 d4 bb 30 f9 09 bc
       0.005201177 0.0036960589 -0.00647937 -0.008421227
000110 47 4a 8f 3b a6 6e 0f bc 1a dd 10 bc f1 0e 23 3b
       0.004372868 -0.008754408 -0.008841777 0.0024880732
000120 a9 2f 8f 3a d6 60 8d 3b 19 fb 30 bb c9 16 b5 3b
       0.0010924238 0.0043145223 -0.0027005135 0.005526398
000130 8b ea b5 3b 1d 20 17 bb 72 d8 4d 3a 40 ab ec b9
       0.0055516413 -0.0023059912 0.0007852382 -0.0004514102

net.net.0.downsample.bias f4 [80]
000000 24 ac 0c 3c 5d 88 d8 bb 6a ce 00 bc 7d 73 04 bc
       0.008585963 -0.0066080526 -0.007861713 -0.008084175
000010 71 77 e4 bb 58 90 c3 3b 08 46 0a 3c c9 1f fe bb
       -0.0069722463 0.005968135 0.008439548 -0.007755254
000020 9f af d2 3b c3 fb c4 bb 04 a7 0f bc 57 ae 9a bb
       0.006429627 -0.0060114576 -0.008767847 -0.00472049
000030 dd 5e 95 bb 36 ce fe 3b ac 63 05 bc 51 06 01 3c
       -0.0045584277 0.007776047 -0.008141439 0.007875041
000040 bb 2a 10 bc e7 7f ef bb 61 a7 07 3c 44 15 04 bc
       -0.00879925 -0.0073089483 0.008279652 -0.008061711
000050 3a bd 05 bc 59 c7 d7 3b 9b cc 0b 3c 84 cb 0e 3b
       -0.008162791 0.0065850434 0.008532668 0.0021788785
000060 7c 85 0b 3c cd 80 ed bb 94 e0 dc 3b c0 ea fe bb
       0.008515712 -0.0072480203 0.006740639 -0.007779449
000070 66 70 f2 3b 02 ec 06 3c 47 02 0f bc aa bb f6 bb
       0.007398653 0.00823498 -0.00872857 -0.0075296955
000080 63 34 ca bb 07 6c 10 bc 96 87 0a 3c 0d 5d 0b 3c
       -0.0061707958 -0.008814818 0.008455178 0.008506072
000090 91 ad 04 3c 85 da dd 3b 72 eb 0b 3c b0 d2 42 bb
       0.008098022 0.0067704343 0.008540021 -0.002972763
0000a0 32 b2 03 3c c2 94 05 3c d2 22 0f bc da 70 0e 3c
       0.008038091 0.008153142 -0.008736329 0.008693898
0000b0 ce 38 96 3b de c1 04 bc b2 95 0f bc d3 67 df bb
       0.0045844084 -0.008102862 -0.0087637175 -0.0068177967
0000c0 10 87 0e bc 1e da 0c bc 59 04 10 bc cd 34 7b 3b
       -0.008699194 -0.008596925 -0.008790099 0.0038331032
0000d0 59 df f3 3b 92 0b d8 bb df c8 0a 3c 82 31 f4 bb
       0.0074423966 -0.006593176 0.008470743 -0.007452191
0000e0 d4 08 ec bb 05 44 05 bc ce 99 c6 3b 10 80 0e bc
       -0.007203201 -0.008133893 0.0060608154 -0.008697525
0000f0 cc de a9 3b 63 ad b8 bb fd 12 ec 3b 83 46 05 bc
       0.00518403 -0.0056359037 0.007204412 -0.008134487
000100 2c 70 07 3c 47 03 0d 3c 9d bf 02 bc 8e bd f4 3b
       0.00826649 0.008606738 -0.0079802545 0.0074688857
000110 64 27 0b bc db 2a 00 3c 94 58 03 3c 43 90 0f bc
       -0.008493278 0.007822718 0.008016724 -0.008762422
000120 fe 32 c4 bb 9a 5e b7 3b b9 4c 07 bc f0 c2 09 3c
       -0.005987524 0.005595994 -0.008258038 0.008408293
000130 3a 76 b3 3b 81 3b 08 3c 3f 86 89 ba 96 f4 ee 3b
       0.00547674 0.008314968 -0.0010492279 0.0072923405

net.net.1.conv1.weight f4 [80, 80, 2]
000000 0a d7 23 bc 0a d7 23 bc 40 8f e1 3b 2f 93 0f bc
       -0.01 -0.01 0.006883532 -0.008763119
000010 0a d7 23 bc 0a d7 23 bc 0a d7 23 bc 0a d7 23 bc
       -0.01 -0.01 -0.01 -0.01
000020 ba 39 a2 bb ae a4 81 bb cc 79 0c 3c 89 f7 05 3c
       -0.004950729 -0.003956399 0.0085739605 0.008176693
000030 0a d7 23 bc 0a d7 23 bc 3b a0 99 bb db 01 9c ba
       -0.01 -0.01 -0.0046882904 -0.0011902408
000040 0a d7 23 3c 66 2f 09 3c e8 ae f8 bb 60 03 ec 3b
       0.01 0.008373117 -0.00758921 0.007202551
000050 0a d7 23 3c 0a d7 23 3c 3d a7 59 3b 47 d6 95 3a
       0.01 0.01 0.0033211254 0.0011431657
000060 e9 46 4f 3b 91 1f 8d bb 0a d7 23 3c 0a d7 23 3c
       0.003162796 -0.0043067415 0.01 0.01
000070 0a d7 23 bc 0a d7 23 bc 0a d7 23 3c 0a d7 23 3c
       -0.01 -0.01 0.01 0.01
000080 0a d7 23 3c 0a d7 23 3c 0a d7 23 bc 0a d7 23 bc
       0.01 0.01 -0.01 -0.01
000090 0a d7 23 3c 0a d7 23 3c 01 2d 04 bc e7 30 3e 3b
       0.01 0.01 -0.00806737 0.0029020847
0000a0 0a d7 23 bc 0a d7 23 bc 5a 75 0d bc 30 d2 73 3b
       -0.01 -0.01 -0.008633936 0.003720414
0000b0 0a d7 23 bc 0a d7 23 bc 6c cd 1d 3b e9 8b 25 bb
       -0.01 -0.01 0.002407874 -0.0025260395
0000c0 0a d7 23 bc 0a d7 23 bc 2d 5c bf 3a 7a 51 04 3c
       -0.01 -0.01 0.0014599614 0.008076066
0000d0 60 a4 b4 bb 98 62 0e 3c 16 03 e3 bb 6c 33 08 bb
       -0.005512759 0.008690499 -0.006927858 -0.0020782603
0000e0 7c 04 cc ba 75 c7 f6 3a 0a d7 23 3c 0a d7 23 3c
       -0.0015565301 0.0018827753 0.01 0.01
0000f0 0a d7 23 3c 0a d7 23 3c ae c3 a2 ba cc 02 83 bb
       0.01 0.01 -0.0012417936 -0.003998136
000100 76 3e 30 3b 72 cb 58 3b 0a d7 23 3c 0a d7 23 3c
       0.0026892698 0.0033080247 0.01 0.01
000110 0a d7 23 bc 0a d7 23 bc 0a d7 23 bc 0a d7 23 bc
       -0.01 -0.01 -0.01 -0.01
000120 0a d7 23 3c 0a d7 23 3c 76 37 0c bc 90 c0 33 3b
       0.01 0.01 -0.008558145 0.0027428009
000130 0a d7 23 bc 0a d7 23 bc b2 06 7d bb 89 7c 24 bb
       -0.01 -0.01 -0.0038608727 -0.0025098643
000140 0a d7 23 3c 0a d7 23 3c 0a d7 23 3c 0a d7 23 3c
       0.01 0.01 0.01 0.01
000150 0a d7 23 3c 0a d7 23 3c 0e b0 87 bb 91 d2 0a bc
       0.01 0.01 -0.0041408604 -0.0084730545
000160 e6 ef 94 bb 3b 7f f4 3a 0a d7 23 bc 0a d7 23 bc
       -0.0045451997 0.001865364 -0.01 -0.01
000170 0a d7 23 3c 0a d7 23 3c 06 28 b9 3b 78 88 b8 bb
       0.01 0.01 0.005650523 -0.0056315027
000180 0a d7 23 3c 0a d7 23 3c 0a d7 23 3c 0a d7 23 3c
       0.01 0.01 0.01 0.01
000190 0a d7 23 3c 0a d7 23 3c 75 e8 e9 bb 24 2b 14 bb
       0.01 0.01 -0.0071383067 -0.0022608722
0001a0 0a d7 23 3c 0a d7 23 3c 1b c4 e6 3b 7d 21 99 3b
       0.01 0.01 0.0070424206 0.0046731816
0001b0 0a d7 23 bc 0a d7 23 bc ea 96 8d ba a1 31 00 bc
       -0.01 -0.01 -0.0010802422 -0.007824332
0001c0 e5 09 0c bc 42 82 c5 3a 0a d7 23 bc 0a d7 23 bc
       -0.008547281 0.0015068727 -0.01 -0.01
0001d0 90 d5 47 39 90 0d 92 3b 6c 30 a1 3b 10 19 9b 3b
       0.00019057677 0.004457183 0.0049191024 0.0047332123
0001e0 03 78 2f bb 16 7f 0a 3c 0a d7 23 3c 0a d7 23 3c
       -0.0026774413 0.008453151 0.01 0.01
0001f0 1f 07 b0 3b a9 89 d0 bb 0a d7 23 bc 0a d7 23 bc
       0.0053719427 -0.0063640666 -0.01 -0.01
000200 0a d7 23 3c 0a d7 23 3c 0a d7 23 bc 0a d7 23 bc
       0.01 0.01 -0.01 -0.01
000210 c1 09 f1 3b b4 c2 85 ba 8b a4 a7 3b a2 75 06 3c
       0.007355899 -0.0010205121 0.0051160506 0.008206757
000220 b0 0d cb bb bb 6b b1 3b 0a d7 23 3c 0a d7 23 3c
       -0.0061967 0.005414454 0.01 0.01
000230 0a d7 23 3c 0a d7 23 3c 0a d7 23 3c 0a d7 23 3c
       0.01 0.01 0.01 0.01
000240 1b 46 01 bb 29 f4 61 3b a3 f1 13 bc 9c db b8 bb
       -0.0019725624 0.0034477806 -0.009029779 -0.005641414
000250 0a d7 23 bc 0a d7 23 bc 0a d7 23 bc 0a d7 23 bc
       -0.01 -0.01 -0.01 -0.01
000260 a3 6c 12 bc 62 f1 d5 bb 2c 60 09 3c 8a a5 99 3a
       -0.008937034 -0.006529019 0.008384746 0.0011722308
000270 0a d7 23 bc 0a d7 23 bc 0a d7 23 3c 0a d7 23 3c
       -0.01 -0.01 0.01 0.01
000280 14 e9 a0 3b f5 fa 3b bb 26 ed 60 bb 1f b1 a8 3b
       0.0049105976 -0.0028683518 -0.003432104 0.0051480676
000290 f4 49 e4 bb 7d 14 09 3c 97 1e 41 bb bd 22 03 3c
       -0.0069668237 0.008366701 -0.0029467696 0.008003888
0002a0 e7 23 de ba dd 19 71 3b 0a d7 23 3c ff 4a 1c bc
       -0.0016947956 0.0036789097 0.01 -0.009539365
0002b0 0a d7 23 bc 0a d7 23 bc 86 02 51 ba 44 2b 1f bc
       -0.01 -0.01 -0.00079730933 -0.009714905
0002c0 0a d7 23 3c 69 26 90 bb b8 66 f0 ba 29 27 e3 ba
       0.01 -0.00439911 -0.001834116 -0.0017330396
0002d0 19 6e 6e 3b ac 5b ce bb 1a 98 1d bc ec a3 e7 bb
       0.0036381541 -0.0062975492 -0.009618783 -0.0070691016
0002e0 56 70 c9 3b 08 9b 1f bc 0a d7 23 3c 0a d7 23 3c
       0.0061474247 -0.009741552 0.01 0.01
0002f0 5c ff 9c 3a 02 5c fb bb b0 e1 09 bc a7 7d c7 3b
       0.0011977958 -0.0076708803 -0.0084156245 0.006087977
000300 26 15 cf bb 0a d7 23 3c 0a d7 23 bc 5d d5 38 3b
       -0.0063196598 0.01 -0.01 0.0028203346
000310 a9 a3 14 3b 0a d7 23 3c 48 b9 d6 bb 9c 57 1c 3c
       0.0022680557 0.01 -0.006552849 0.009542372
000320 5f f8 c2 3b 9f c0 23 3b 66 75 20 3c 67 49 0b 3c
       0.0059500183 0.0024986637 0.009793615 0.008501387
000330 0a 94 1f bb 0a d7 23 bc 0a d7 23 3c f4 74 a1 3b
       -0.0024349713 -0.01 0.01 0.004927272
000340 6a 9c 0c bc 1f 4a e3 ba bb 3e 1f bc d1 35 18 3c
       -0.008582214 -0.0017340815 -0.009719546 0.009290175
000350 40 e4 72 bb 1f a5 9d 3b 2c 29 08 bc 51 21 f9 3b
       -0.0037062317 0.0048109437 -0.008310597 0.0076028486
000360 e0 08 12 3c 0a d7 23 3c 0a d7 23 3c c0 b0 95 3b
       0.008913249 0.01 0.01 0.0045681894
000370 80 f5 50 b6 5c ec 9b 3b e6 b8 a1 3b cb e0 4e b9
       -3.1137315e-06 0.004758401 0.0049353717 -0.00019729433
000380 09 e9 20 3c ca 37 1f bc c5 a2 e2 ba 99 86 16 3c
       0.009821185 -0.009717891 -0.0017290941 0.009187364
000390 82 1d 0a bc d9 1f 60 3b 2b c5 15 3c 0a d7 23 bc
       -0.008429887 0.003419867 0.009141247 -0.01
0003a0 bc e0 ce 3b 0a d7 23 3c 7b 0e e6 3b d1 10 8d 3b
       0.0063134115 0.01 0.007020769 0.004304983
0003b0 ea c7 0f 3c ae f9 a0 b9 0a d7 23 3c 7c f0 1e bc
       0.008775691 -0.00030703604 0.01 -0.009700891
0003c0 0a d7 23 3c 0a d7 23 3c 0a d7 23 3c 29 62 38 bb
       0.01 0.01 0.01 -0.002813468
0003d0 e5 f0 1c 3b b0 2f 05 bb 0a 64 af 3b 6f da 1f 3c
       0.0023947295 -0.0020322613 0.0053525018 0.0097566685
0003e0 a9 7f 24 3b 34 4c b0 3b 0a d7 23 bc 30 be 05 3c
       0.0025100505 0.005380178 -0.01 0.00816302
0003f0 32 48 fa 3b 0a d7 23 3c f2 ba 92 ba 0a d7 23 bc
       0.007638001 0.01 -0.001119463 -0.01

net.net.1.conv1.bias f4 [80]
000000 26 90 f9 3b b8 4f b5 bb d4 72 0c 3c cd 7d 08 3c
       0.007616061 -0.005533185 0.008572299 0.0083307745
000010 12 17 f0 3b bd f2 06 3c 7c 7d 09 3c c7 ca f1 3b
       0.007326969 0.008236584 0.008391734 0.0073789093
000020 6c 9b 22 bc eb 2f f7 3b 06 16 f9 3b 78 ea 09 3c
       -0.009924751 0.007543554 0.0076015024 0.008417718
000030 f6 9a fc 3b 56 81 0a 3c 8b a5 f6 3b 32 9f 6e bb
       0.0077089025 0.008453688 0.0075270585 -0.0036410806
000040 59 49 1c bc 7e 2a 01 3c 0a d7 23 bc 33 cb fd bb
       -0.009538972 0.007883666 -0.01 -0.0077451705
000050 0d d6 09 3c ae 21 ce bb 30 b2 0a 3c 42 d8 00 bc
       0.00841285 -0.006290636 0.008465335 -0.00786406
000060 9d 24 e6 bb 99 22 1e bc c1 60 fd 3b a9 b0 ef bb
       -0.0070234076 -0.009651803 0.007732481 -0.0073147607
000070 72 87 21 bc 92 3f f2 3b 2b 7b c4 bb a8 34 05 bc
       -0.009858953 0.007392832 -0.005996128 -0.00813023
000080 77 8c d5 bb 4e 25 f8 3b ca 00 f0 3b 82 59 c2 bb
       -0.006516989 0.0075728064 0.007324313 -0.0059310803
000090 c1 c1 07 3c 11 23 07 3c cd 01 93 3b 08 7f e9 3b
       0.008285941 0.008248107 0.0044862987 0.007125739
0000a0 31 9c 0a 3c 75 1e fd 3b ba 85 ed bb 7d f7 ef bb
       0.0084600905 0.007724578 -0.0072486075 -0.007323204
0000b0 82 87 d0 bb de 9d 11 bc 32 85 f8 3b f6 75 da bb
       -0.00636381 -0.008887736 0.0075842375 -0.006666894
0000c0 bc eb 0d bc df 30 e8 3b c9 10 d7 bb ec cf ec 3b
       -0.0086621605 0.007085904 -0.0065632802 0.0072269347
0000d0 ce 89 05 3c 90 df f8 3b 92 9a eb bb 9d 4a 0b 3c
       0.008150531 0.00759501 -0.007190057 0.008501676
0000e0 e5 d9 06 3c b2 06 11 bc cb 18 fc 3b 0b 54 f3 3b
       0.008230661 -0.008851694 0.0076933852 0.00742579
0000f0 ec 25 0a 3c 7c f3 fb 3b d0 d6 f5 3b 94 0b 0c bc
       0.008431893 0.0076889377 0.0075024143 -0.008547682
000100 0a d7 23 bc f4 33 09 3c 5c dd f8 3b 02 7d 09 3c
       -0.01 0.008374203 0.0075947475 0.008391621
000110 e9 34 ff bb 14 9a 17 bc 21 01 2d bb f5 a1 fe 3b
       -0.00778829 -0.009253044 -0.0026398378 0.0077707716
000120 ed ba fd 3b 0a d7 23 bc 84 f4 14 bc 6e 4f f7 3b
       0.0077432306 -0.01 -0.0090915 0.0075473106
000130 df fe 06 3c 4f 42 d3 bb a0 15 14 bc 68 f0 21 bb
       0.008239477 -0.0064471136 -0.009038359 -0.0024709944

net.net.1.conv2.weight f4 [80, 80, 2]
000000 0a d7 23 bc 0a d7 23 bc 29 31 04 3c fe a4 19 bc
       -0.01 -0.01 0.008068361 -0.009377716
000010 0a d7 23 3c 0a d7 23 3c 0a d7 23 3c 0a d7 23 3c
       0.01 0.01 0.01 0.01
000020 0a d7 23 bc 0a d7 23 bc 0a d7 23 3c 0a d7 23 3c
       -0.01 -0.01 0.01 0.01
000030 0a d7 23 3c 0a d7 23 3c 0a d7 23 bc 0a d7 23 bc
       0.01 0.01 -0.01 -0.01
000040 fa 23 40 ba ac 3b 23 bc 0a d7 23 bc 0a d7 23 bc
       -0.00073295797 -0.009962957 -0.01 -0.01
000050 0a d7 23 bc 0a d7 23 bc 0a d7 23 3c 0a d7 23 3c
       -0.01 -0.01 0.01 0.01
000060 0a d7 23 3c 0a d7 23 3c 0a d7 23 3c 0a d7 23 3c
       0.01 0.01 0.01 0.01
000070 0a d7 23 bc 0a d7 23 bc 0a d7 23 3c 14 62 07 3c
       -0.01 -0.01 0.01 0.00826313
000080 e1 f3 f2 bb 91 7a 23 bc 0a d7 23 bc 0a d7 23 bc
       -0.0074143265 -0.009977953 -0.01 -0.01
000090 1e 0b 63 ba 2a 62 b9 bb 99 b7 0c 3c 05 e2 0c 3a
       -0.00086610194 -0.005657454 0.008588695 0.00053742557
0000a0 0a d7 23 3c 0a d7 23 3c 5e c6 8d 3b ba 33 1a 3c
       0.01 0.01 0.0043266257 0.009411747
0000b0 0a d7 23 3c 0a d7 23 3c 5f b9 e3 bb 29 88 1f bc
       0.01 0.01 -0.006949588 -0.009737053
0000c0 f8 1d 1e 3c b4 52 ad 39 c5 c9 10 3c 62 d6 20 3c
       0.0096507 0.0003305875 0.008837168 0.009816738
0000d0 0a d7 23 bc 0a d7 23 bc c5 a0 ef bb f9 9b 31 bb
       -0.01 -0.01 -0.0073128664 -0.0027101024
0000e0 66 7b 0e 3c d9 2a dc bb 0a d7 23 bc 0a d7 23 bc
       0.008696413 -0.006718975 -0.01 -0.01
0000f0 56 64 1d 3c 6b 84 eb 3b 21 12 04 bc 0a d7 23 3c
       0.0096064415 0.0071874163 -0.008060963 0.01
000100 0a d7 23 3c d2 39 a4 3b 0a d7 23 bc 0a d7 23 bc
       0.01 0.0050117755 -0.01 -0.01
000110 0a d7 23 bc 0a d7 23 bc 96 56 1f bc 09 25 d2 bb
       -0.01 -0.01 -0.009725234 -0.0064131063
000120 0a d7 23 3c 0a d7 23 3c 0a d7 23 3c 0a d7 23 3c
       0.01 0.01 0.01 0.01
000130 0a d7 23 bc 0a d7 23 bc 0a d7 23 bc 0a d7 23 bc
       -0.01 -0.01 -0.01 -0.01
000140 0a d7 23 3c 0a d7 23 3c 0a d7 23 bc 0a d7 23 bc
       0.01 0.01 -0.01 -0.01
000150 fa b3 0e bc 40 fb 22 3c bc 2e 23 bc cc 63 ce 3b
       -0.008709902 0.009947598 -0.009959873 0.006298518
000160 b6 fa 36 bb 3a 55 88 bb cf 34 0e bc 4c 28 0e bc
       -0.0027920431 -0.0041605504 -0.008679583 -0.0086766
000170 0a d7 23 bc 0a d7 23 bc c0 ef 60 3b 49 f4 0b bc
       -0.01 -0.01 0.003432259 -0.008542129
000180 47 c4 8f 3b ab 08 2a 3b 0a d7 23 bc 0a d7 23 bc
       0.0043874118 0.0025945108 -0.01 -0.01
000190 74 b5 10 bc 73 3c 18 3a 0a d7 23 bc 0a d7 23 bc
       -0.008832324 0.00058073475 -0.01 -0.01
0001a0 0a d7 23 3c 0a d7 23 3c 0a d7 23 bc 0a d7 23 bc
       0.01 0.01 -0.01 -0.01
0001b0 7f 68 33 ba d1 a7 1e 3c 0a d7 23 3c 0a d7 23 3c
       -0.0006843879 0.009683565 0.01 0.01
0001c0 0a d7 23 3c 0a d7 23 3c 7b 4f b6 bb 2d 64 b7 39
       0.01 0.01 -0.005563674 0.00034979117
0001d0 0a d7 23 bc 0a d7 23 bc 0a d7 23 bc 0a d7 23 bc
       -0.01 -0.01 -0.01 -0.01
0001e0 0a d7 23 3c 0a d7 23 3c 0a d7 23 bc 0a d7 23 bc
       0.01 0.01 -0.01 -0.01
0001f0 0a d7 23 bc 0a d7 23 bc 0a d7 23 bc 7b 9d 02 bc
       -0.01 -0.01 -0.01 -0.007972117
000200 0a d7 23 3c 0a d7 23 3c 0a d7 23 3c 0a d7 23 3c
       0.01 0.01 0.01 0.01
000210 0a d7 23 bc 0a d7 23 bc 0a d7 23 3c 0a d7 23 3c
       -0.01 -0.01 0.01 0.01
000220 d7 85 28 3b 91 54 e9 bb 08 96 c2 bb ba 0b 23 bc
       0.002571454 -0.007120677 -0.0059382953 -0.009951526
000230 54 24 b6 bb 94 4a d7 3b 0a d7 23 bc 0a d7 23 bc
       -0.00555853 0.0065701697 -0.01 -0.01
000240 0a d7 23 bc 0a d7 23 bc 4e d8 75 3b bc 5f 94 3b
       -0.01 -0.01 0.003751296 0.004528014
000250 2c 15 03 3c a9 ea 14 3c 0a d7 23 bc 0a d7 23 bc
       0.008000653 0.0090891505 -0.01 -0.01
000260 0a d7 23 3c 0a d7 23 3c 66 9a 7e 3b c1 6e d6 ba
       0.01 0.01 0.0038849353 -0.0016359912
000270 0a d7 23 bc 13 5e 72 bb f3 1c 87 3b f1 79 63 bb
       -0.01 -0.0036982342 0.004123324 -0.0034710134
000280 fe 78 cc ba 0a d7 23 3c 0a d7 23 3c d8 d0 10 3c
       -0.0015600023 0.01 0.01 0.008838855
000290 e0 d0 99 bb a2 80 04 bc 4e c6 db 3a cb 4c aa bb
       -0.0046940893 -0.008087309 0.0016767473 -0.0051971427
0002a0 0a d7 23 3c 0a d7 23 3c aa b6 21 bc 45 e0 d5 3a
       0.01 0.01 -0.009870211 0.0016317448
0002b0 0a d7 23 bc 0a d7 23 bc 38 cf ee 3a d0 49 3d 3b
       -0.01 -0.01 0.0018219715 0.0028883107
0002c0 1f 8b ad ba e4 15 0c 3c 0a d7 23 3c ca e0 d7 ba
       -0.0013240314 0.008550141 0.01 -0.0016470191
0002d0 0a d7 23 3c 0a d7 23 3c 0a d7 23 bc 0d da f4 bb
       0.01 0.01 -0.01 -0.0074722827
0002e0 8e c8 d2 3a 0a d7 23 bc 01 f4 d8 3a 0a d7 23 bc
       0.0016081498 -0.01 0.0016552211 -0.01
0002f0 0a d7 23 3c a4 0c f2 ba cc 8a 23 3c 4b 8b 23 3c
       0.01 -0.0018466902 0.009981822 0.0099819405
000300 93 64 23 bc 50 94 e9 3b b1 09 8d 3b 0a d7 23 3c
       -0.009972709 0.007128276 0.004304134 0.01
000310 7f b0 23 bc e2 4b 5e bb 0a d7 23 bc c9 a2 57 bb
       -0.00999081 -0.0033919741 -0.01 -0.0032903424
000320 0a d7 23 bc 0a d7 23 bc 09 7a d6 3b 20 d4 e8 bb
       -0.01 -0.01 0.0065453094 -0.0071053654
000330 0a d7 23 bc 44 d5 1e bc a9 cd 23 3c 79 cd 23 3c
       -0.01 -0.009694401 0.009997764 0.009997719
000340 d2 c3 23 bc da c3 23 bc 6d 95 ba bb 14 20 28 3b
       -0.009995418 -0.009995425 -0.0056940825 0.0025653886
000350 ae 17 77 b9 76 9f dc ba ab ef bd ba 99 44 ae bb
       -0.00023564577 -0.0016832191 -0.0014490982 -0.005318236
000360 e6 61 1d bc c8 ef 07 3c 44 ba f1 ba 11 dc e5 3b
       -0.00960586 0.008296914 -0.0018442352 0.0070147594
000370 fe c1 23 3c 5d c2 23 bc 7e e4 cf 3a d3 92 23 3c
       0.009994982 -0.00999507 0.0015860943 0.009983736
000380 0d 85 23 3c 75 85 23 3c 5a 48 1a 3c 0a d7 23 3c
       0.009980452 0.009980549 0.009416664 0.01
000390 0a d7 23 3c 84 b5 0a bb d7 1e 86 ba 71 c7 23 bc
       0.01 -0.002116532 -0.001023258 -0.009996281
0003a0 0a d7 23 bc 0a d7 23 bc 34 ef 04 bc 10 a9 11 3b
       -0.01 -0.01 -0.008113671 0.0022226013
0003b0 0a d7 23 3c a2 b0 ee 3b 0a d7 23 3c ea da 7a 39
       0.01 0.00728424 0.01 0.0002392341
0003c0 0a d7 23 bc 1a 41 f0 bb 0a d7 23 3c 4d b3 d2 3b
       -0.01 -0.0073319795 0.01 0.0064300657
0003d0 b6 be d0 3b dd d4 52 ba 62 b1 23 bc 7c d2 cf bb
       0.0063703908 -0.00080425834 -0.009991022 -0.0063422304
0003e0 0a d7 23 bc 83 ec 04 3b 12 a0 94 bb 0a d7 23 bc
       -0.01 0.0020282574 -0.0045356834 -0.01
0003f0 0a d7 23 3c 0a d7 23 3c 3f 52 a8 bb 9d 47 0e bc
       0.01 0.01 -0.0051367576 -0.008684066
