data/params/quant_gan/netG.pth (torch, 665590 bytes, 59 tensors)

net.conv.weight f4 [1, 80, 1]
0	0xbc0dae0b	-0.008647452
1	0xbb96a344	-0.0045970995
2	0x3c87409f	0.016510306
3	0xbb85fef9	-0.004089233
4	0xbb9cf64f	-0.0047901045
5	0x3ad2a41c	0.0016070637
6	0xbbfca11a	-0.0077096345
7	0xbc6b0d42	-0.014346423
8	0xbb9787d8	-0.004624348
9	0xbc06067f	-0.00818026
10	0x3b922732	0.004460239
11	0x3c0b0e10	0.0084872395
12	0xb9e82868	-0.00044280593
13	0x3cafd9b8	0.021466121
14	0x3b05603c	0.002035155
15	0x3b990244	0.0046694595
16	0xbc5ffc5c	-0.013671007
17	0xbbfa2283	-0.0076335086
18	0x3c8a94c6	0.016916644
19	0x3c6b176f	0.014348849
20	0xb98d33d9	-0.00026932245
21	0x3ba7dd64	0.0051228274
22	0xbc6ded48	-0.014521904
23	0xbbf1df4c	-0.0073813554
24	0xbbc67a84	-0.0060570855
25	0xb9bcb837	-0.00035995405
26	0xb9aa239e	-0.00032451464
27	0xbc4dc16a	-0.012558321
28	0xbc86ef02	-0.01647139
29	0xbb95a02f	-0.0045662145
30	0x3a0f30eb	0.00054623064
31	0xbbc74376	-0.00608104
32	0x3bcf9faf	0.0063361744
33	0x3c622dd8	0.013804875
34	0xb985a870	-0.00025493233
35	0xb6da9300	-6.5140193e-06
36	0xbcc052d2	-0.023476992
37	0x3b894457	0.004189055
38	0xba194f6c	-0.00058483216
39	0x3ac1d809	0.0014789115
40	0xbc6e7243	-0.014553609
41	0x3bce8390	0.0063023046
42	0xb7d0f1ec	-2.4908186e-05
43	0x3bf4523c	0.007456092
44	0xbc7ef184	-0.0155605115
45	0xb92de642	-0.00016584343
46	0xb7ee8b40	-2.8436654e-05
47	0x3c565cfb	0.013083692
48	0x3ad5cef5	0.0016312288
49	0xbb452744	-0.0030083219
50	0xbc2a5725	-0.010396753
51	0x3b2891a2	0.002572157
52	0xbad508c4	-0.0016253223
53	0xbba3f973	-0.005004102
54	0xbc0a2ace	-0.008433057
55	0xbc942bff	-0.018087385
56	0x3b7cbedb	0.0038565907
57	0xbc087349	-0.008328267
58	0xbc3fd639	-0.0117087895
59	0x3c21f94f	0.0098861
60	0xbbaf0860	-0.0053415745
61	0xbb9f694c	-0.0048648473
62	0x3c445c9c	0.01198497
63	0xbba58eb8	-0.005052414
64	0x3b3550aa	0.0027666488
65	0x3b232c14	0.0024898099
66	0xbb14e9d7	-0.0022722387
67	0xbc547660	-0.012967676
68	0x3a02a9f9	0.00049844343
69	0x3b9a4128	0.0047074743
70	0xba5f9bbc	-0.0008529981
71	0xb9857dbe	-0.00025461422
72	0xbcc02676	-0.02345584
73	0xbc2a170e	-0.010381473
74	0xbacdac11	-0.0015691539
75	0x3bbb2ebd	0.0057123587
76	0x392c0410	0.00016404712
77	0xbba2cbf1	-0.0049681594
78	0xbb3e0faf	-0.0029001047
79	0xba0f7c82	-0.000547357

net.net.0.conv1.weight f4 [80, 3, 1]
0	0xb99df64c	-0.0003012888
1	0x3bd43a74	0.0064766947
2	0x3c1bed15	0.009516974
3	0xbb48b401	-0.0030624869
4	0x3b12210c	0.002229753
5	0x3c3f6e90	0.011684075
6	0xbb5ccea1	-0.0033692496
7	0xbbb744c0	-0.0055929124
8	0x3c2ee3c6	0.010674423
9	0x3c07e806	0.008295065
10	0xbacb40ea	-0.0015507017
11	0x3c0c557a	0.008565301
12	0x3b286c32	0.0025699255
13	0xbc8884c8	-0.016664878
14	0x3c30990d	0.010778678
15	0x3c1a4da1	0.009417922
16	0x3b54dc3f	0.003247991
17	0x3b94d7b2	0.0045423144
18	0xbb6d189c	-0.0036177998
19	0xbb88da37	-0.004176404
20	0x3baf0502	0.005341173
21	0x3b99a2f4	0.004688615
22	0xbc972b83	-0.018453365
23	0x3b70f152	0.0036764932
24	0x3a814611	0.00098628
25	0x3a771e50	0.0009426819
26	0x3bf9aad0	0.0076192394
27	0xb7d95da8	-2.5912028e-05
28	0x3c3781c2	0.01120037
29	0xbbde8944	-0.0067912657
30	0x3c563e27	0.013076342
31	0x3ad1d2e1	0.0016008281
32	0x3b8c89ee	0.0042889034
33	0xbbfc54d2	-0.007700541
34	0xbc126406	-0.00893498
35	0x3ca40df2	0.02002618
36	0xbc4598dc	-0.01206037
37	0x3b85d4f0	0.004084222
38	0xbc489962	-0.012243601
39	0x3b6c6f22	0.0036076983
40	0x3b4bad87	0.0031078772
41	0x3acd145a	0.0015646324
42	0x3bb32b28	0.005467791
43	0xbb8b6948	-0.004254494
44	0x3bc7a061	0.0060921167
45	0x3a8be802	0.0010674002
46	0xbb27b641	-0.002559081
47	0xbc4292cd	-0.01187582
48	0x3c80fd44	0.015745766
49	0xbbfa0bb3	-0.007630789
50	0xbb2eab16	-0.0026652268
51	0xbc3da744	-0.011575524
52	0xbc0ee759	-0.00872215
53	0xbc61f00a	-0.01379014
54	0x3b2b2c87	0.002611907
55	0xbc022a18	-0.007944606
56	0x3c3c07d8	0.0114764795
57	0x3b77b2e0	0.0037795827
58	0xbb9bbd13	-0.004752764
59	0xba6ecafb	-0.0009109226
60	0x3cc47f5e	0.023986515
61	0xbc7f4aef	-0.01558183
62	0xbb07e9ba	-0.0020738677
63	0xbc5de8de	-0.013544289
64	0xbbb7fbd9	-0.0056147394
65	0xbae6306b	-0.0017562037
66	0xbc8b4acf	-0.017003445
67	0xbad8f09a	-0.0016551197
68	0xbc5db87a	-0.013532752
69	0xbc6a98cc	-0.014318656
70	0x3a723361	0.00092392234
71	0xba287a48	-0.0006426913
72	0xbb928e30	-0.0044725165
73	0xbc8869fc	-0.0166521
74	0x3c9dd6b5	0.01926742
75	0x3bc0e59c	0.0058867466
76	0xbb8f968e	-0.004381961
77	0x3b386457	0.002813598
78	0xbbff15d2	-0.0077845836
79	0x3c489e1d	0.012244728
80	0x3c1dc728	0.009630002
81	0xbaca1094	-0.0015416318
82	0x3c9c0e28	0.019049719
83	0xbc180d1a	-0.009280467
84	0xbc771d7d	-0.015082714
85	0x3bfdf89b	0.0077505833
86	0x3c9c147e	0.01905274
87	0xbaeb45c4	-0.0017949869
88	0xbbee488c	-0.007271832
89	0x3c2774e5	0.010220741
90	0x3cc205fa	0.02368449
91	0xbbd3b33c	-0.0064605754
92	0xbc3883c0	-0.01126188
93	0x3ba59ced	0.0050541074
94	0xbabcaebb	-0.0014395335
95	0xbc215a47	-0.009848184
96	0xbc1d92de	-0.009617535
97	0xbc282dbe	-0.010264812
98	0x3a68b93a	0.00088776986
99	0xbcca43db	-0.02469056
100	0xbbcdbd35	-0.0062786588
101	0x3c2859eb	0.010275344
102	0xbcaf28b2	-0.02138171
103	0xbc889d86	-0.016676676
104	0x3bc9b112	0.0061551416
105	0x3c3c2249	0.011482784
106	0xbc945bc4	-0.018110164
107	0xbb234235	-0.0024911289
108	0xbb90028e	-0.004394836
109	0xbc16a9d6	-0.0091957655
110	0x3bf29e6d	0.0074041397
111	0xbbb4c96c	-0.0055171754
112	0x3c103dd8	0.008803807
113	0x39e88bbc	0.00044354599
114	0x3bfcb4ce	0.0077119833
115	0xbc04464c	-0.008073401
116	0x3a8ecb0d	0.0010894254
117	0x3c02d137	0.007984451
118	0xbb2c7e7d	-0.002632051
119	0x3c3ee417	0.011651061
120	0xbb03ab9a	-0.0020091296
121	0xbc0e0dca	-0.00867028
122	0xbbeff811	-0.007323273
123	0x3b8eb3d0	0.0043549314
124	0xbc41c48c	-0.011826646
125	0xbc794702	-0.0152146835
126	0xbc04d421	-0.008107216
127	0x3c015769	0.007894375
128	0x3c0d862c	0.008637946
129	0x3a1cabae	0.000597651
130	0x3c82a13a	0.01594602
131	0xbb81663d	-0.0039489553
132	0xbb90580d	-0.0044050277
133	0xba6c3e2c	-0.000901195
134	0x3c4978cd	0.012296868
135	0x3b67da46	0.0035377904
136	0xbc315e5b	-0.010825719
137	0x3b5bcbc3	0.00335382
138	0xba24e9c0	-0.0006290935
139	0xbab96ee2	-0.0014147426
140	0x3b2c3535	0.002627683
141	0x3cad097b	0.021122685
142	0xbc35ac6f	-0.011088475
143	0x3c3e1519	0.01160171
144	0x3ce81060	0.02832812
145	0xbb021945	-0.0019851488
146	0xbbc923d5	-0.0061383047
147	0x3b45986e	0.003015067
148	0xbba646ca	-0.0050743567
149	0xbac18954	-0.0014765658
150	0x3c8edadb	0.017438343
151	0x3c27bdf2	0.010238158
152	0xbb734672	-0.0037120846
153	0x3c6aa192	0.014320748
154	0x3b67fe66	0.0035399436
155	0x39d2f5ee	0.00040237553
156	0xbc81f478	-0.015863642
157	0x3c6637a4	0.014051352
158	0x3c95e48a	0.018297452
159	0xbc045a2d	-0.00807814
160	0xbb960825	-0.0045786076
161	0xbc0865d4	-0.008325059
162	0x3a57a15a	0.00082256424
163	0xbb36474f	-0.00278135
164	0xbc639283	-0.013889912
165	0xbbebeafa	-0.0071996422
166	0x3b8d5f71	0.004314356
167	0xbb3a3bae	-0.002841692
168	0x388adcac	6.621456e-05
169	0x3b518786	0.0031971647
170	0x3bac2e6d	0.005254558
171	0x3b8fd4bd	0.004389374
172	0xbc190364	-0.009339187
173	0xb96a8f0c	-0.00022369268
174	0xbc0987c4	-0.008394185
175	0x3c8de59e	0.017321404
176	0xbc38b111	-0.011272685
177	0xb939c834	-0.00017717556
178	0xbb4785ac	-0.0030444665
179	0x3a9f6174	0.0012159781
180	0xbb04492a	-0.002018521
181	0x3c6d535c	0.014485206
182	0x3bddc01b	0.0067672855
183	0x3c833d2b	0.016020378
184	0xbb62aef4	-0.0034589143
185	0x3c36e4a3	0.01116291
186	0x39e5a0e1	0.00043798148
187	0x3ba61e5b	0.0050695366
188	0x3c3deb47	0.011591739
189	0xbb67006c	-0.0035248054
190	0x3c48d09e	0.012256769
191	0xb9fe3d5c	-0.00048492372
192	0x3c8d60fb	0.017258158
193	0xbc1440ff	-0.009048699
194	0x3b5b899d	0.0033498772
195	0xbc723f77	-0.014785639
196	0x3b3b44da	0.0028574974
197	0xbaa7f000	-0.0012812614
198	0x3c324807	0.0108814305
199	0xbb865fb6	-0.004100765
200	0xbc1bb340	-0.009503186
201	0x3b5629f9	0.0032678826
202	0xbc981187	-0.018563045
203	0x3af681ba	0.0018806972
204	0x3be2a0cd	0.0069161416
205	0xbb1a044c	-0.0023501096
206	0xbb21ba3f	-0.0024677662
207	0x3a93101f	0.0011220014
208	0xbc0e186d	-0.008672816
209	0xbc07a52a	-0.008279124
210	0xbc57b44c	-0.013165545
211	0x3b448309	0.002998533
212	0x3b2e7906	0.0026622429
213	0xbc34c3b7	-0.01103299
214	0xbb2f1492	-0.0026715142
215	0xb9fb6f52	-0.0004795739
216	0x3a71ca3e	0.0009223557
217	0xbbd5d2ad	-0.0065253587
218	0x3ba7a01f	0.0051155235
219	0x3c987c9e	0.01861411
220	0x3c3a6006	0.011375433
221	0xbbd54ff3	-0.006509775
222	0x3bc35c1c	0.005961908
223	0xbc18ac93	-0.009318489
224	0xbc54ab5e	-0.01298031
225	0xbbf6dd33	-0.007533693
226	0xbba07452	-0.004896679
227	0x39f2cd6a	0.00046310882
228	0xbc51e131	-0.0128100375
229	0x3aa42696	0.0012523707
230	0x3c54911c	0.01297405
231	0x3b95154c	0.004549658
232	0xbc88a981	-0.016682388
233	0xbc78ed06	-0.01519323
234	0xbc0c8f00	-0.008579016
235	0x3b6d9d90	0.0036257245
236	0x3c584b21	0.013201506
237	0x3aac9595	0.0013167138
238	0xbaee7f8c	-0.0018195971
239	0x3ba7c0af	0.005119405

net.net.0.conv1.bias f4 [80]
0	0xbdb65d62	-0.0890453
1	0xbf07d0e4	-0.53053117
2	0x3e1f3085	0.15545852
3	0xbeaa62e7	-0.33278582
4	0x3eb16142	0.34644514
5	0x3f0d506d	0.55200845
6	0x3e2ed901	0.17074968
7	0x3db7ec85	0.089806594
8	0x3e6a6cfe	0.2289314
9	0x3f0e3396	0.55547464
10	0x3ec534ae	0.38516754
11	0xbee476ed	-0.44621983
12	0x3e16d65f	0.14730214
13	0x3e8b9c88	0.2726786
14	0x3ef0cad9	0.4702976
15	0xbf0e5f5e	-0.5561427
16	0x3e73085f	0.23733662
17	0xbed02ec1	-0.4066067
18	0x3ebf74ce	0.37393802
19	0xbe343eb7	-0.17602049
20	0x3e8d2875	0.2756993
21	0xbeeb614d	-0.45972672
22	0xbed9aa38	-0.4251268
23	0x3f06d183	0.5266344
24	0xbead1bbb	-0.3381022
25	0xbef78298	-0.48341823
26	0xbd898eb0	-0.067166686
27	0x3e93cba8	0.28866315
28	0x3ddfb8b3	0.109239005
29	0xbf02d246	-0.511021
30	0xbed9ec3c	-0.42563045
31	0xbd8b701c	-0.068084925
32	0x3ef04b00	0.4693222
33	0xbebea5d0	-0.3723588
34	0x3ebecb29	0.37264374
35	0x3eb76a9c	0.35823524
36	0xbec26a7c	-0.37971866
37	0xbc87d01e	-0.01657873
38	0x3df29857	0.11845463
39	0xbed9cd74	-0.4253956
40	0xbe477dd9	-0.19481601
41	0x3e1221fc	0.14270777
42	0xbe14bb0d	-0.14524479
43	0x3e98608a	0.29761153
44	0xbf00832a	-0.5020014
45	0xbee9a1c8	-0.45631242
46	0xbe8d8797	-0.2764251
47	0xbee9f584	-0.45695126
48	0x3f09bf2b	0.53807324
49	0x3f00b21b	0.5027177
50	0xbf0800b1	-0.53126055
51	0x3e8dc150	0.27686548
52	0xbe354a7f	-0.17704199
53	0x3e539fd6	0.20666441
54	0x3e5fe9f1	0.21866585
55	0x3ed79e79	0.42113093
56	0xbf047b6b	-0.5175082
57	0x3e47436a	0.1945931
58	0xbecf6eca	-0.40514213
59	0x3d873710	0.06602299
60	0xbe4dd74e	-0.20101663
61	0xbe5c540c	-0.21516436
62	0xbecd1ead	-0.40062466
63	0x3f122815	0.5709241
64	0x3ef3d594	0.47623885
65	0xbf0f71e8	-0.5603318
66	0x3b7949d9	0.0038038401
67	0x3e12aed4	0.14324504
68	0xbeb8bb8c	-0.36080587
69	0xbe2d9fa3	-0.16955428
70	0x3f124aff	0.57145685
71	0x3b911ad9	0.0044282493
72	0x3ee86aab	0.4539388
73	0xbec34e1b	-0.38145527
74	0xbeaaece8	-0.3338387
75	0xbee7d653	-0.45280704
76	0x3e319d45	0.1734515
77	0x3ee70695	0.4512221
78	0xbd532b5e	-0.05155503
79	0x3dd92f34	0.106047064

net.net.0.conv2.weight f4 [80, 80, 1]
0	0x3b2ded65	0.0026539203
1	0xba53179e	-0.00080525305
2	0x3c7aafdb	0.015300716
3	0x3c0258c9	0.007955738
4	0xbce88e62	-0.028388206
5	0x3b81e826	0.003964442
6	0xbc017a7c	-0.007902738
7	0xbba62639	-0.0050704745
8	0xbb606595	-0.0034240235
9	0x3ae4faa4	0.0017469716
10	0xbbb16b99	-0.005414438
11	0xbc479eb3	-0.012183833
12	0x3c3b9bb9	0.011450701
13	0x3b8f5322	0.004373924
14	0x3c3dc8ce	0.01158352
15	0xbb65be13	-0.003505592
16	0x3af401a5	0.0018616213
17	0x3b57683c	0.0032868525
18	0xbbe31e76	-0.0069311215
19	0x3a782afc	0.00094668544
20	0x3c410028	0.011779822
21	0x3a19183d	0.00058400986
22	0xbb42a39c	-0.002969957
23	0x3c4f06b4	0.0126358755
24	0xbbe0b2f1	-0.006857269
25	0xbc0fcfc5	-0.008777563
26	0x3a3e0d3f	0.00072498986
27	0xbbc00757	-0.00586025
28	0x3b0ea341	0.0021764787
29	0xbbc8f6c9	-0.0061329347
30	0x3b708945	0.0036702913
31	0x3c3cb760	0.011518329
32	0xbb0a7f4a	-0.0021133
33	0xbc25d392	-0.010121243
34	0x3c7c41a6	0.015396511
35	0xbc7f4d3a	-0.015582377
36	0x3c726922	0.014795573
37	0x3ae52cb8	0.0017484641
38	0xbc3be0e5	-0.011467193
39	0xbba748c2	-0.005105109
40	0x3c691080	0.014225125
41	0xbc453904	-0.012037519
42	0x3c2c9d3c	0.0105355345
43	0xbbcbbe6f	-0.00621777
44	0x3ce254da	0.027628351
45	0xbc4897d4	-0.01224323
46	0x3c5d8558	0.013520561
47	0x3bcbdee2	0.006221638
48	0xbaca3359	-0.001542668
49	0xbb59f496	-0.0033257357
50	0x3bb0e721	0.0053986465
51	0xbbf3435d	-0.007423802
52	0x3b5f2f55	0.0034055312
53	0xbc3074e0	-0.010770053
54	0xbbbcdb19	-0.005763423
55	0x3c3db9bf	0.01157993
56	0x3b5bbe7e	0.003353029
57	0xbcc58830	-0.02411279
58	0x3ca0cb2a	0.019628126
59	0xbb941d7e	-0.0045201173
60	0xbba54b22	-0.005044357
61	0x3c317a1a	0.010832334
62	0xbaf611d0	-0.0018773619
63	0x3c2336da	0.009961808
64	0xbc3a929f	-0.011387496
65	0x3c2f9781	0.010717274
66	0x3c8a1143	0.016853934
67	0xba88c280	-0.0010433942
68	0x3c0189f0	0.007906422
69	0xbc12eb1c	-0.008967187
70	0xbb359b27	-0.0027710886
71	0x3bdd2839	0.0067491797
72	0x3b8a7d70	0.004226379
73	0xbb589d84	-0.003305287
74	0x3c2eec6f	0.010676487
75	0x3bb33cf8	0.0054699145
76	0xbc9b8790	-0.01898554
77	0xbc29bf71	-0.010360585
78	0x3ae3cef0	0.0017380398
79	0x3bb091f4	0.0053884927
80	0xbbc6dfad	-0.0060691447
81	0x3b7d1b91	0.0038621167
82	0x3c8bcce0	0.017065465
83	0xbb5c1357	-0.0033580863
84	0xbaa8ed2a	-0.0012888063
85	0xb9e0e5d6	-0.0004289585
86	0x3c52b30b	0.01286007
87	0xb978fc88	-0.00023745198
88	0xbc11ff1d	-0.008910921
89	0x3a671fa9	0.00088166684
90	0xbc50add9	-0.012736761
91	0xbc97c23e	-0.01852524
92	0xbc9bd76b	-0.019023618
93	0xbb4bb6b9	-0.0031084253
94	0xbca8bc3a	-0.020597566
95	0xbc331e8a	-0.010932574
96	0xbbb5935f	-0.0055412496
97	0xbc3c9a5a	-0.01151141
98	0x3bf14345	0.0073627555
99	0x3b86debe	0.0041159084
100	0xbb4e578b	-0.0031485285
101	0x3c151648	0.009099551
102	0xbca0e8cb	-0.019642254
103	0xbc7f75a7	-0.015592015
104	0xbad70fa4	-0.001640786
105	0x3957b45c	0.00020571187
106	0xbbebbcf2	-0.007194155
107	0xbc110136	-0.008850386
108	0xbc0a88ba	-0.00845545
109	0xba6b584d	-0.00089776964
110	0xbc1be526	-0.009515082
111	0x3bdccb8d	0.0067381323
112	0x3bc0a517	0.0058790552
113	0xbbf6f20f	-0.00753618
114	0xbc8d07d2	-0.017215643
115	0x3b6e8703	0.0036396391
116	0xbbc92594	-0.006138513
117	0x3bbdd023	0.005792634
118	0xbc07905f	-0.008274167
119	0x3c2369bc	0.0099739395
120	0xbb764946	-0.0037580295
121	0x3b6006a5	0.0034183648
122	0xbbebc6c7	-0.007195327
123	0x3c2db8ee	0.010603173
124	0xbc3c3ed9	-0.011489593
125	0xbbaabeb0	-0.00521072
126	0x3bc82898	0.006108355
127	0x3c8ec618	0.017428443
128	0x3c43206a	0.011909584
129	0xbac4868c	-0.0014993711
130	0x3c18ec44	0.009333674
131	0xbc153320	-0.009106427
132	0xba520607	-0.00080117624
133	0x3ba3fe72	0.0050046975
134	0x3baec791	0.0053338488
135	0x3c46ca6e	0.012133224
136	0xbbfe87bb	-0.007767645
137	0xbc483508	-0.012219675
138	0x3bddd90a	0.006770258
139	0x3b81152a	0.0039392905
140	0x3c4358b9	0.011923009
141	0x3c39ff0a	0.01135231
142	0xbc015ccc	-0.00789566
143	0x3a8cacf2	0.0010732694
144	0x3c08a068	0.008339025
145	0x3aa28ca3	0.0012401532
146	0xbb42bf44	-0.0029716054
147	0x3c07aa52	0.008280354
148	0xbcf35030	-0.029701322
149	0x3c259133	0.010105419
150	0x3c04c597	0.00810375
151	0x3c127171	0.008938179
152	0x3c803fba	0.015655387
153	0xbbc24ee1	-0.0059298133
154	0x3b7d5b8d	0.0038659305
155	0xbb5ff32d	-0.0034172044
156	0xbbc11281	-0.0058920984
157	0x3bd0fdf6	0.0063779308
158	0xbb9d8401	-0.004806996
159	0x3cbbffb6	0.02294908
160	0xbc5b17a8	-0.013372339
161	0x3b1b0c0d	0.0023658306
162	0x3c4038b7	0.011732272
163	0xbb1cfbea	-0.0023953863
164	0xbc890a7d	-0.016728634
165	0x3bc09ff4	0.005878443
166	0xbc337fc7	-0.010955757
167	0xbcaacb49	-0.020848887
168	0x3b8100ed	0.003936878
169	0x3bdf485e	0.0068140468
170	0xbbc2fc6a	-0.0059505003
171	0xbc252fc2	-0.010082187
172	0xb7554e00	-1.271395e-05
173	0x3c078eb5	0.00827377
174	0x3a8a575d	0.0010554601
175	0xbc0909be	-0.008364139
176	0xbc0a00d9	-0.008423054
177	0xbc6943fd	-0.014237401
178	0xbb0eb570	-0.0021775626
179	0xbbfeaf08	-0.00777233
180	0x3b8ff0d4	0.0043927226
181	0x3bd46632	0.006481909
182	0xbc070003	-0.008239749
183	0xbb175e77	-0.0023097077
184	0xbc17703f	-0.00924307
185	0xbaeae682	-0.001792148
186	0x3bdc0c2c	0.006715318
187	0xbc8f44b0	-0.017488807
188	0x3b960048	0.0045776702
189	0xbbd16ff4	-0.0063915197
190	0xbb0ff093	-0.0021963462
191	0xbc05be4d	-0.008163047
192	0xbc5b6a1c	-0.013391998
193	0xbc8aad68	-0.01692839
194	0xbcc59831	-0.024120422
195	0x3a4ef3e8	0.0007894621
196	0x3c1d247e	0.00959122
197	0xbcd9698e	-0.02653959
198	0xbce16268	-0.027512744
199	0xb8c00640	-9.1564376e-05
200	0x3ba77eb0	0.005111538
201	0xbb90a1e1	-0.0044138287
202	0xbca8a8d0	-0.020588309
203	0xbc09c179	-0.008407944
204	0x3bec63ba	0.007214037
205	0xbb0de2a8	-0.002164999
206	0xbc1acc83	-0.009448173
207	0xbc61a8b3	-0.013773131
208	0xbbeafea1	-0.0071714674
209	0xbc63deb8	-0.013908081
210	0x3c3d6ae2	0.011561127
211	0xbbbfa702	-0.0058487663
212	0xbc24bce5	-0.010054802
213	0xbc1db497	-0.0096255755
214	0x3c622808	0.0138034895
215	0xbaaffe37	-0.0013427202
216	0x3bbe0edc	0.005800111
217	0xbbaec276	-0.00533324
218	0xbc392675	-0.011300673
219	0xba1e90af	-0.0006048781
220	0xbc993594	-0.018702306
221	0x3bf2fe6c	0.0074155834
222	0x3b9d9785	0.0048093223
223	0x3bae01cd	0.0053102733
224	0xbb0c8680	-0.0021442473
225	0x3c15089e	0.009096293
226	0xbc025ccd	-0.007956696
227	0x3c887525	0.016657421
228	0x3bab5e37	0.005229737
229	0x3c34106b	0.0109902425
230	0xbc3db79b	-0.0115794195
231	0x3c049541	0.0080922255
232	0x3c32f9b0	0.010923788
233	0x3af3b8be	0.0018594486
234	0xbc96c932	-0.018406484
235	0x3af5a55c	0.0018741298
236	0xbc659e09	-0.014014729
237	0xbc3a8003	-0.011383059
238	0xbca8fec1	-0.020629289
239	0x3c95d26d	0.018288815
240	0xbb7ddf66	-0.0038737892
241	0xbc582442	-0.013192238
242	0xbbe1b416	-0.006887923
243	0xbc00f6e1	-0.0078713605
244	0x3b599634	0.00332011
245	0x3b84c427	0.0040517035
246	0x3b7f07f2	0.0038914648
247	0x3b0bfaa6	0.0021359115
248	0x3bf80674	0.0075691286
249	0x3c07d95d	0.00829157
250	0x3c18bc22	0.009322198
251	0x3c58b4af	0.013226672
252	0xbada9844	-0.0016677459
253	0x3bfa6151	0.0076409956
254	0xb9f02602	-0.00045804685
255	0x3bafe634	0.0053680185

net.net.0.conv2.bias f4 [80]
0	0x3c80f5d9	0.01574223
1	0x3d9ea81a	0.077469066
2	0x3db109b7	0.08644431
3	0x3de6637a	0.112494424
4	0xba593d50	-0.00082870293
5	0x3db235db	0.08701678
6	0xbdbacd3d	-0.09121177
7	0xbdc1f060	-0.09469676
8	0xbd631e2c	-0.055448696
9	0xbde8ce23	-0.113674425
10	0xbd40bfba	-0.047057845
11	0xbb1ff808	-0.0024409313
12	0xbbbd21f5	-0.0057718703
13	0xbd983e5a	-0.074337676
14	0xbc2afa7d	-0.010435698
15	0x3c9f61d3	0.019455826
16	0x3dc75607	0.09733205
17	0x3cf297e7	0.029613448
18	0xbb6a929c	-0.0035792952
19	0x3d8622b5	0.065495886
20	0x3cacfdf9	0.021117197
21	0x3de8a4bc	0.113595456
22	0x3c4364f9	0.011925929
23	0xbd608125	-0.05481066
24	0xbdac3b21	-0.084097154
25	0xbd65b8de	-0.056084506
26	0xbdfa9ae8	-0.12236577
27	0xbbf6eda9	-0.0075356555
28	0xbd84b115	-0.06479088
29	0xbcc8a61e	-0.024493273
30	0xbc6079b9	-0.013700896
31	0x3dc5a5aa	0.096507385
32	0x3dd394d2	0.103311196
33	0xbc48ad9a	-0.012248421
34	0x3d2af27e	0.041735165
35	0x3d2dd820	0.04244244
36	0xbd24a09d	-0.040192235
37	0x3db347dd	0.08753941
38	0xbd843c0e	-0.06456767
39	0xbcb62cf3	-0.02223823
40	0x3d446a8e	0.04795318
41	0x3db0dd79	0.086359926
42	0x3cce84f5	0.025209883
43	0x3dc8dc09	0.098075934
44	0x3be29586	0.0069147972
45	0xbd39f844	-0.04540278
46	0x3dc4b5df	0.09605002
47	0x3d230187	0.03979638
48	0xbd996af6	-0.07491104
49	0x3db1e003	0.08685305
50	0xbd293440	-0.041309595
51	0xbd6942dd	-0.05694853
52	0xbd56b338	-0.05241701
53	0x3d8e7cc9	0.06957395
54	0xbd8a133b	-0.06741949
55	0xbd08a379	-0.033359025
56	0x3dd49770	0.10380447
57	0xbd9022f0	-0.07037914
58	0x3dc401ba	0.09570642
59	0xbb974218	-0.0046160333
60	0xbd9d054b	-0.07667025
61	0x3dd01aac	0.10161337
62	0xbdce9606	-0.100872084
63	0x3da1f712	0.07908453
64	0xbd66c154	-0.056336716
65	0xbdc9e358	-0.098578155
66	0x3db46a43	0.0880933
67	0x3d8fdb19	0.070242114
68	0x3d10867f	0.035284515
69	0x3d8712ac	0.06595358
70	0xbd2bde5f	-0.041960116
71	0x3bd16960	0.0063907355
72	0xbc63b63c	-0.0138984285
73	0x3bcbc30f	0.006218321
74	0xbcddc64b	-0.027072093
75	0x3dbdeddd	0.092738844
76	0xbcc5f938	-0.024166688
77	0xbd5aa36e	-0.053378515
78	0xbd971a45	-0.073780574
79	0x3dc30b03	0.09523585

net.net.0.net.0.weight f4 [80, 3, 1]
0	0xb99df64c	-0.0003012888
1	0x3bd43a74	0.0064766947
2	0x3c1bed15	0.009516974
3	0xbb48b401	-0.0030624869
4	0x3b12210c	0.002229753
5	0x3c3f6e90	0.011684075
6	0xbb5ccea1	-0.0033692496
7	0xbbb744c0	-0.0055929124
8	0x3c2ee3c6	0.010674423
9	0x3c07e806	0.008295065
10	0xbacb40ea	-0.0015507017
11	0x3c0c557a	0.008565301
12	0x3b286c32	0.0025699255
13	0xbc8884c8	-0.016664878
14	0x3c30990d	0.010778678
15	0x3c1a4da1	0.009417922
16	0x3b54dc3f	0.003247991
17	0x3b94d7b2	0.0045423144
18	0xbb6d189c	-0.0036177998
19	0xbb88da37	-0.004176404
20	0x3baf0502	0.005341173
21	0x3b99a2f4	0.004688615
22	0xbc972b83	-0.018453365
23	0x3b70f152	0.0036764932
24	0x3a814611	0.00098628
25	0x3a771e50	0.0009426819
26	0x3bf9aad0	0.0076192394
27	0xb7d95da8	-2.5912028e-05
28	0x3c3781c2	0.01120037
29	0xbbde8944	-0.0067912657
30	0x3c563e27	0.013076342
31	0x3ad1d2e1	0.0016008281
32	0x3b8c89ee	0.0042889034
33	0xbbfc54d2	-0.007700541
34	0xbc126406	-0.00893498
35	0x3ca40df2	0.02002618
36	0xbc4598dc	-0.01206037
37	0x3b85d4f0	0.004084222
38	0xbc489962	-0.012243601
39	0x3b6c6f22	0.0036076983
40	0x3b4bad87	0.0031078772
41	0x3acd145a	0.0015646324
42	0x3bb32b28	0.005467791
43	0xbb8b6948	-0.004254494
44	0x3bc7a061	0.0060921167
45	0x3a8be802	0.0010674002
46	0xbb27b641	-0.002559081
47	0xbc4292cd	-0.01187582
48	0x3c80fd44	0.015745766
49	0xbbfa0bb3	-0.007630789
50	0xbb2eab16	-0.0026652268
51	0xbc3da744	-0.011575524
52	0xbc0ee759	-0.00872215
53	0xbc61f00a	-0.01379014
54	0x3b2b2c87	0.002611907
55	0xbc022a18	-0.007944606
56	0x3c3c07d8	0.0114764795
57	0x3b77b2e0	0.0037795827
58	0xbb9bbd13	-0.004752764
59	0xba6ecafb	-0.0009109226
60	0x3cc47f5e	0.023986515
61	0xbc7f4aef	-0.01558183
62	0xbb07e9ba	-0.0020738677
63	0xbc5de8de	-0.013544289
64	0xbbb7fbd9	-0.0056147394
65	0xbae6306b	-0.0017562037
66	0xbc8b4acf	-0.017003445
67	0xbad8f09a	-0.0016551197
68	0xbc5db87a	-0.013532752
69	0xbc6a98cc	-0.014318656
70	0x3a723361	0.00092392234
71	0xba287a48	-0.0006426913
72	0xbb928e30	-0.0044725165
73	0xbc8869fc	-0.0166521
74	0x3c9dd6b5	0.01926742
75	0x3bc0e59c	0.0058867466
76	0xbb8f968e	-0.004381961
77	0x3b386457	0.002813598
78	0xbbff15d2	-0.0077845836
79	0x3c489e1d	0.012244728
80	0x3c1dc728	0.009630002
81	0xbaca1094	-0.0015416318
82	0x3c9c0e28	0.019049719
83	0xbc180d1a	-0.009280467
84	0xbc771d7d	-0.015082714
85	0x3bfdf89b	0.0077505833
86	0x3c9c147e	0.01905274
87	0xbaeb45c4	-0.0017949869
88	0xbbee488c	-0.007271832
89	0x3c2774e5	0.010220741
90	0x3cc205fa	0.02368449
91	0xbbd3b33c	-0.0064605754
92	0xbc3883c0	-0.01126188
93	0x3ba59ced	0.0050541074
94	0xbabcaebb	-0.0014395335
95	0xbc215a47	-0.009848184
96	0xbc1d92de	-0.009617535
97	0xbc282dbe	-0.010264812
98	0x3a68b93a	0.00088776986
99	0xbcca43db	-0.02469056
100	0xbbcdbd35	-0.0062786588
101	0x3c2859eb	0.010275344
102	0xbcaf28b2	-0.02138171
103	0xbc889d86	-0.016676676
104	0x3bc9b112	0.0061551416
105	0x3c3c2249	0.011482784
106	0xbc945bc4	-0.018110164
107	0xbb234235	-0.0024911289
108	0xbb90028e	-0.004394836
109	0xbc16a9d6	-0.0091957655
110	0x3bf29e6d	0.0074041397
111	0xbbb4c96c	-0.0055171754
112	0x3c103dd8	0.008803807
113	0x39e88bbc	0.00044354599
114	0x3bfcb4ce	0.0077119833
115	0xbc04464c	-0.008073401
116	0x3a8ecb0d	0.0010894254
117	0x3c02d137	0.007984451
118	0xbb2c7e7d	-0.002632051
119	0x3c3ee417	0.011651061
120	0xbb03ab9a	-0.0020091296
121	0xbc0e0dca	-0.00867028
122	0xbbeff811	-0.007323273
123	0x3b8eb3d0	0.0043549314
124	0xbc41c48c	-0.011826646
125	0xbc794702	-0.0152146835
126	0xbc04d421	-0.008107216
127	0x3c015769	0.007894375
128	0x3c0d862c	0.008637946
129	0x3a1cabae	0.000597651
130	0x3c82a13a	0.01594602
131	0xbb81663d	-0.0039489553
132	0xbb90580d	-0.0044050277
133	0xba6c3e2c	-0.000901195
134	0x3c4978cd	0.012296868
135	0x3b67da46	0.0035377904
136	0xbc315e5b	-0.010825719
137	0x3b5bcbc3	0.00335382
138	0xba24e9c0	-0.0006290935
139	0xbab96ee2	-0.0014147426
140	0x3b2c3535	0.002627683
141	0x3cad097b	0.021122685
142	0xbc35ac6f	-0.011088475
143	0x3c3e1519	0.01160171
144	0x3ce81060	0.02832812
145	0xbb021945	-0.0019851488
146	0xbbc923d5	-0.0061383047
147	0x3b45986e	0.003015067
148	0xbba646ca	-0.0050743567
149	0xbac18954	-0.0014765658
150	0x3c8edadb	0.017438343
151	0x3c27bdf2	0.010238158
152	0xbb734672	-0.0037120846
153	0x3c6aa192	0.014320748
154	0x3b67fe66	0.0035399436
155	0x39d2f5ee	0.00040237553
156	0xbc81f478	-0.015863642
157	0x3c6637a4	0.014051352
158	0x3c95e48a	0.018297452
159	0xbc045a2d	-0.00807814
160	0xbb960825	-0.0045786076
161	0xbc0865d4	-0.008325059
162	0x3a57a15a	0.00082256424
163	0xbb36474f	-0.00278135
164	0xbc639283	-0.013889912
165	0xbbebeafa	-0.0071996422
166	0x3b8d5f71	0.004314356
167	0xbb3a3bae	-0.002841692
168	0x388adcac	6.621456e-05
169	0x3b518786	0.0031971647
170	0x3bac2e6d	0.005254558
171	0x3b8fd4bd	0.004389374
172	0xbc190364	-0.009339187
173	0xb96a8f0c	-0.00022369268
174	0xbc0987c4	-0.008394185
175	0x3c8de59e	0.017321404
176	0xbc38b111	-0.011272685
177	0xb939c834	-0.00017717556
178	0xbb4785ac	-0.0030444665
179	0x3a9f6174	0.0012159781
180	0xbb04492a	-0.002018521
181	0x3c6d535c	0.014485206
182	0x3bddc01b	0.0067672855
183	0x3c833d2b	0.016020378
184	0xbb62aef4	-0.0034589143
185	0x3c36e4a3	0.01116291
186	0x39e5a0e1	0.00043798148
187	0x3ba61e5b	0.0050695366
188	0x3c3deb47	0.011591739
189	0xbb67006c	-0.0035248054
190	0x3c48d09e	0.012256769
191	0xb9fe3d5c	-0.00048492372
192	0x3c8d60fb	0.017258158
193	0xbc1440ff	-0.009048699
194	0x3b5b899d	0.0033498772
195	0xbc723f77	-0.014785639
196	0x3b3b44da	0.0028574974
197	0xbaa7f000	-0.0012812614
198	0x3c324807	0.0108814305
199	0xbb865fb6	-0.004100765
200	0xbc1bb340	-0.009503186
201	0x3b5629f9	0.0032678826
202	0xbc981187	-0.018563045
203	0x3af681ba	0.0018806972
204	0x3be2a0cd	0.0069161416
205	0xbb1a044c	-0.0023501096
206	0xbb21ba3f	-0.0024677662
207	0x3a93101f	0.0011220014
208	0xbc0e186d	-0.008672816
209	0xbc07a52a	-0.008279124
210	0xbc57b44c	-0.013165545
211	0x3b448309	0.002998533
212	0x3b2e7906	0.0026622429
213	0xbc34c3b7	-0.01103299
214	0xbb2f1492	-0.0026715142
215	0xb9fb6f52	-0.0004795739
216	0x3a71ca3e	0.0009223557
217	0xbbd5d2ad	-0.0065253587
218	0x3ba7a01f	0.0051155235
219	0x3c987c9e	0.01861411
220	0x3c3a6006	0.011375433
221	0xbbd54ff3	-0.006509775
222	0x3bc35c1c	0.005961908
223	0xbc18ac93	-0.009318489
224	0xbc54ab5e	-0.01298031
225	0xbbf6dd33	-0.007533693
226	0xbba07452	-0.004896679
227	0x39f2cd6a	0.00046310882
228	0xbc51e131	-0.0128100375
229	0x3aa42696	0.0012523707
230	0x3c54911c	0.01297405
231	0x3b95154c	0.004549658
232	0xbc88a981	-0.016682388
233	0xbc78ed06	-0.01519323
234	0xbc0c8f00	-0.008579016
235	0x3b6d9d90	0.0036257245
236	0x3c584b21	0.013201506
237	0x3aac9595	0.0013167138
238	0xbaee7f8c	-0.0018195971
239	0x3ba7c0af	0.005119405

net.net.0.net.0.bias f4 [80]
0	0xbdb65d62	-0.0890453
1	0xbf07d0e4	-0.53053117
2	0x3e1f3085	0.15545852
3	0xbeaa62e7	-0.33278582
4	0x3eb16142	0.34644514
5	0x3f0d506d	0.55200845
6	0x3e2ed901	0.17074968
7	0x3db7ec85	0.089806594
8	0x3e6a6cfe	0.2289314
9	0x3f0e3396	0.55547464
10	0x3ec534ae	0.38516754
11	0xbee476ed	-0.44621983
12	0x3e16d65f	0.14730214
13	0x3e8b9c88	0.2726786
14	0x3ef0cad9	0.4702976
15	0xbf0e5f5e	-0.5561427
16	0x3e73085f	0.23733662
17	0xbed02ec1	-0.4066067
18	0x3ebf74ce	0.37393802
19	0xbe343eb7	-0.17602049
20	0x3e8d2875	0.2756993
21	0xbeeb614d	-0.45972672
22	0xbed9aa38	-0.4251268
23	0x3f06d183	0.5266344
24	0xbead1bbb	-0.3381022
25	0xbef78298	-0.48341823
26	0xbd898eb0	-0.067166686
27	0x3e93cba8	0.28866315
28	0x3ddfb8b3	0.109239005
29	0xbf02d246	-0.511021
30	0xbed9ec3c	-0.42563045
31	0xbd8b701c	-0.068084925
32	0x3ef04b00	0.4693222
33	0xbebea5d0	-0.3723588
34	0x3ebecb29	0.37264374
35	0x3eb76a9c	0.35823524
36	0xbec26a7c	-0.37971866
37	0xbc87d01e	-0.01657873
38	0x3df29857	0.11845463
39	0xbed9cd74	-0.4253956
40	0xbe477dd9	-0.19481601
41	0x3e1221fc	0.14270777
42	0xbe14bb0d	-0.14524479
43	0x3e98608a	0.29761153
44	0xbf00832a	-0.5020014
45	0xbee9a1c8	-0.45631242
46	0xbe8d8797	-0.2764251
47	0xbee9f584	-0.45695126
48	0x3f09bf2b	0.53807324
49	0x3f00b21b	0.5027177
50	0xbf0800b1	-0.53126055
51	0x3e8dc150	0.27686548
52	0xbe354a7f	-0.17704199
53	0x3e539fd6	0.20666441
54	0x3e5fe9f1	0.21866585
55	0x3ed79e79	0.42113093
56	0xbf047b6b	-0.5175082
57	0x3e47436a	0.1945931
58	0xbecf6eca	-0.40514213
59	0x3d873710	0.06602299
60	0xbe4dd74e	-0.20101663
61	0xbe5c540c	-0.21516436
62	0xbecd1ead	-0.40062466
63	0x3f122815	0.5709241
64	0x3ef3d594	0.47623885
65	0xbf0f71e8	-0.5603318
66	0x3b7949d9	0.0038038401
67	0x3e12aed4	0.14324504
68	0xbeb8bb8c	-0.36080587
69	0xbe2d9fa3	-0.16955428
70	0x3f124aff	0.57145685
71	0x3b911ad9	0.0044282493
72	0x3ee86aab	0.4539388
73	0xbec34e1b	-0.38145527
74	0xbeaaece8	-0.3338387
75	0xbee7d653	-0.45280704
76	0x3e319d45	0.1734515
77	0x3ee70695	0.4512221
78	0xbd532b5e	-0.05155503
79	0x3dd92f34	0.106047064

net.net.0.net.2.weight f4 [80, 80, 1]
0	0x3b2ded65	0.0026539203
1	0xba53179e	-0.00080525305
2	0x3c7aafdb	0.015300716
3	0x3c0258c9	0.007955738
4	0xbce88e62	-0.028388206
5	0x3b81e826	0.003964442
6	0xbc017a7c	-0.007902738
7	0xbba62639	-0.0050704745
8	0xbb606595	-0.0034240235
9	0x3ae4faa4	0.0017469716
10	0xbbb16b99	-0.005414438
11	0xbc479eb3	-0.012183833
12	0x3c3b9bb9	0.011450701
13	0x3b8f5322	0.004373924
14	0x3c3dc8ce	0.01158352
15	0xbb65be13	-0.003505592
16	0x3af401a5	0.0018616213
17	0x3b57683c	0.0032868525
18	0xbbe31e76	-0.0069311215
19	0x3a782afc	0.00094668544
20	0x3c410028	0.011779822
21	0x3a19183d	0.00058400986
22	0xbb42a39c	-0.002969957
23	0x3c4f06b4	0.0126358755
24	0xbbe0b2f1	-0.006857269
25	0xbc0fcfc5	-0.008777563
26	0x3a3e0d3f	0.00072498986
27	0xbbc00757	-0.00586025
28	0x3b0ea341	0.0021764787
29	0xbbc8f6c9	-0.0061329347
30	0x3b708945	0.0036702913
31	0x3c3cb760	0.011518329
32	0xbb0a7f4a	-0.0021133
33	0xbc25d392	-0.010121243
34	0x3c7c41a6	0.015396511
35	0xbc7f4d3a	-0.015582377
36	0x3c726922	0.014795573
37	0x3ae52cb8	0.0017484641
38	0xbc3be0e5	-0.011467193
39	0xbba748c2	-0.005105109
40	0x3c691080	0.014225125
41	0xbc453904	-0.012037519
42	0x3c2c9d3c	0.0105355345
43	0xbbcbbe6f	-0.00621777
44	0x3ce254da	0.027628351
45	0xbc4897d4	-0.01224323
46	0x3c5d8558	0.013520561
47	0x3bcbdee2	0.006221638
48	0xbaca3359	-0.001542668
49	0xbb59f496	-0.0033257357
50	0x3bb0e721	0.0053986465
51	0xbbf3435d	-0.007423802
52	0x3b5f2f55	0.0034055312
53	0xbc3074e0	-0.010770053
54	0xbbbcdb19	-0.005763423
55	0x3c3db9bf	0.01157993
56	0x3b5bbe7e	0.003353029
57	0xbcc58830	-0.02411279
58	0x3ca0cb2a	0.019628126
59	0xbb941d7e	-0.0045201173
60	0xbba54b22	-0.005044357
61	0x3c317a1a	0.010832334
62	0xbaf611d0	-0.0018773619
63	0x3c2336da	0.009961808
64	0xbc3a929f	-0.011387496
65	0x3c2f9781	0.010717274
66	0x3c8a1143	0.016853934
67	0xba88c280	-0.0010433942
68	0x3c0189f0	0.007906422
69	0xbc12eb1c	-0.008967187
70	0xbb359b27	-0.0027710886
71	0x3bdd2839	0.0067491797
72	0x3b8a7d70	0.004226379
73	0xbb589d84	-0.003305287
74	0x3c2eec6f	0.010676487
75	0x3bb33cf8	0.0054699145
76	0xbc9b8790	-0.01898554
77	0xbc29bf71	-0.010360585
78	0x3ae3cef0	0.0017380398
79	0x3bb091f4	0.0053884927
80	0xbbc6dfad	-0.0060691447
81	0x3b7d1b91	0.0038621167
82	0x3c8bcce0	0.017065465
83	0xbb5c1357	-0.0033580863
84	0xbaa8ed2a	-0.0012888063
85	0xb9e0e5d6	-0.0004289585
86	0x3c52b30b	0.01286007
87	0xb978fc88	-0.00023745198
88	0xbc11ff1d	-0.008910921
89	0x3a671fa9	0.00088166684
90	0xbc50add9	-0.012736761
91	0xbc97c23e	-0.01852524
92	0xbc9bd76b	-0.019023618
93	0xbb4bb6b9	-0.0031084253
94	0xbca8bc3a	-0.020597566
95	0xbc331e8a	-0.010932574
96	0xbbb5935f	-0.0055412496
97	0xbc3c9a5a	-0.01151141
98	0x3bf14345	0.0073627555
99	0x3b86debe	0.0041159084
100	0xbb4e578b	-0.0031485285
101	0x3c151648	0.009099551
102	0xbca0e8cb	-0.019642254
103	0xbc7f75a7	-0.015592015
104	0xbad70fa4	-0.001640786
105	0x3957b45c	0.00020571187
106	0xbbebbcf2	-0.007194155
107	0xbc110136	-0.008850386
108	0xbc0a88ba	-0.00845545
109	0xba6b584d	-0.00089776964
110	0xbc1be526	-0.009515082
111	0x3bdccb8d	0.0067381323
112	0x3bc0a517	0.0058790552
113	0xbbf6f20f	-0.00753618
114	0xbc8d07d2	-0.017215643
115	0x3b6e8703	0.0036396391
116	0xbbc92594	-0.006138513
117	0x3bbdd023	0.005792634
118	0xbc07905f	-0.008274167
119	0x3c2369bc	0.0099739395
120	0xbb764946	-0.0037580295
121	0x3b6006a5	0.0034183648
122	0xbbebc6c7	-0.007195327
123	0x3c2db8ee	0.010603173
124	0xbc3c3ed9	-0.011489593
125	0xbbaabeb0	-0.00521072
126	0x3bc82898	0.006108355
127	0x3c8ec618	0.017428443
128	0x3c43206a	0.011909584
129	0xbac4868c	-0.0014993711
130	0x3c18ec44	0.009333674
131	0xbc153320	-0.009106427
132	0xba520607	-0.00080117624
133	0x3ba3fe72	0.0050046975
134	0x3baec791	0.0053338488
135	0x3c46ca6e	0.012133224
136	0xbbfe87bb	-0.007767645
137	0xbc483508	-0.012219675
138	0x3bddd90a	0.006770258
139	0x3b81152a	0.0039392905
140	0x3c4358b9	0.011923009
141	0x3c39ff0a	0.01135231
142	0xbc015ccc	-0.00789566
143	0x3a8cacf2	0.0010732694
144	0x3c08a068	0.008339025
145	0x3aa28ca3	0.0012401532
146	0xbb42bf44	-0.0029716054
147	0x3c07aa52	0.008280354
148	0xbcf35030	-0.029701322
149	0x3c259133	0.010105419
150	0x3c04c597	0.00810375
151	0x3c127171	0.008938179
152	0x3c803fba	0.015655387
153	0xbbc24ee1	-0.0059298133
154	0x3b7d5b8d	0.0038659305
155	0xbb5ff32d	-0.0034172044
156	0xbbc11281	-0.0058920984
157	0x3bd0fdf6	0.0063779308
158	0xbb9d8401	-0.004806996
159	0x3cbbffb6	0.02294908
160	0xbc5b17a8	-0.013372339
161	0x3b1b0c0d	0.0023658306
162	0x3c4038b7	0.011732272
163	0xbb1cfbea	-0.0023953863
164	0xbc890a7d	-0.016728634
165	0x3bc09ff4	0.005878443
166	0xbc337fc7	-0.010955757
167	0xbcaacb49	-0.020848887
168	0x3b8100ed	0.003936878
169	0x3bdf485e	0.0068140468
170	0xbbc2fc6a	-0.0059505003
171	0xbc252fc2	-0.010082187
172	0xb7554e00	-1.271395e-05
173	0x3c078eb5	0.00827377
174	0x3a8a575d	0.0010554601
175	0xbc0909be	-0.008364139
176	0xbc0a00d9	-0.008423054
177	0xbc6943fd	-0.014237401
178	0xbb0eb570	-0.0021775626
179	0xbbfeaf08	-0.00777233
180	0x3b8ff0d4	0.0043927226
181	0x3bd46632	0.006481909
182	0xbc070003	-0.008239749
183	0xbb175e77	-0.0023097077
184	0xbc17703f	-0.00924307
185	0xbaeae682	-0.001792148
186	0x3bdc0c2c	0.006715318
187	0xbc8f44b0	-0.017488807
188	0x3b960048	0.0045776702
189	0xbbd16ff4	-0.0063915197
190	0xbb0ff093	-0.0021963462
191	0xbc05be4d	-0.008163047
192	0xbc5b6a1c	-0.013391998
193	0xbc8aad68	-0.01692839
194	0xbcc59831	-0.024120422
195	0x3a4ef3e8	0.0007894621
196	0x3c1d247e	0.00959122
197	0xbcd9698e	-0.02653959
198	0xbce16268	-0.027512744
199	0xb8c00640	-9.1564376e-05
200	0x3ba77eb0	0.005111538
201	0xbb90a1e1	-0.0044138287
202	0xbca8a8d0	-0.020588309
203	0xbc09c179	-0.008407944
204	0x3bec63ba	0.007214037
205	0xbb0de2a8	-0.002164999
206	0xbc1acc83	-0.009448173
207	0xbc61a8b3	-0.013773131
208	0xbbeafea1	-0.0071714674
209	0xbc63deb8	-0.013908081
210	0x3c3d6ae2	0.011561127
211	0xbbbfa702	-0.0058487663
212	0xbc24bce5	-0.010054802
213	0xbc1db497	-0.0096255755
214	0x3c622808	0.0138034895
215	0xbaaffe37	-0.0013427202
216	0x3bbe0edc	0.005800111
217	0xbbaec276	-0.00533324
218	0xbc392675	-0.011300673
219	0xba1e90af	-0.0006048781
220	0xbc993594	-0.018702306
221	0x3bf2fe6c	0.0074155834
222	0x3b9d9785	0.0048093223
223	0x3bae01cd	0.0053102733
224	0xbb0c8680	-0.0021442473
225	0x3c15089e	0.009096293
226	0xbc025ccd	-0.007956696
227	0x3c887525	0.016657421
228	0x3bab5e37	0.005229737
229	0x3c34106b	0.0109902425
230	0xbc3db79b	-0.0115794195
231	0x3c049541	0.0080922255
232	0x3c32f9b0	0.010923788
233	0x3af3b8be	0.0018594486
234	0xbc96c932	-0.018406484
235	0x3af5a55c	0.0018741298
236	0xbc659e09	-0.014014729
237	0xbc3a8003	-0.011383059
238	0xbca8fec1	-0.020629289
239	0x3c95d26d	0.018288815
240	0xbb7ddf66	-0.0038737892
241	0xbc582442	-0.013192238
242	0xbbe1b416	-0.006887923
243	0xbc00f6e1	-0.0078713605
244	0x3b599634	0.00332011
245	0x3b84c427	0.0040517035
246	0x3b7f07f2	0.0038914648
247	0x3b0bfaa6	0.0021359115
248	0x3bf80674	0.0075691286
249	0x3c07d95d	0.00829157
250	0x3c18bc22	0.009322198
251	0x3c58b4af	0.013226672
252	0xbada9844	-0.0016677459
253	0x3bfa6151	0.0076409956
254	0xb9f02602	-0.00045804685
255	0x3bafe634	0.0053680185

net.net.0.net.2.bias f4 [80]
0	0x3c80f5d9	0.01574223
1	0x3d9ea81a	0.077469066
2	0x3db109b7	0.08644431
3	0x3de6637a	0.112494424
4	0xba593d50	-0.00082870293
5	0x3db235db	0.08701678
6	0xbdbacd3d	-0.09121177
7	0xbdc1f060	-0.09469676
8	0xbd631e2c	-0.055448696
9	0xbde8ce23	-0.113674425
10	0xbd40bfba	-0.047057845
11	0xbb1ff808	-0.0024409313
12	0xbbbd21f5	-0.0057718703
13	0xbd983e5a	-0.074337676
14	0xbc2afa7d	-0.010435698
15	0x3c9f61d3	0.019455826
16	0x3dc75607	0.09733205
17	0x3cf297e7	0.029613448
18	0xbb6a929c	-0.0035792952
19	0x3d8622b5	0.065495886
20	0x3cacfdf9	0.021117197
21	0x3de8a4bc	0.113595456
22	0x3c4364f9	0.011925929
23	0xbd608125	-0.05481066
24	0xbdac3b21	-0.084097154
25	0xbd65b8de	-0.056084506
26	0xbdfa9ae8	-0.12236577
27	0xbbf6eda9	-0.0075356555
28	0xbd84b115	-0.06479088
29	0xbcc8a61e	-0.024493273
30	0xbc6079b9	-0.013700896
31	0x3dc5a5aa	0.096507385
32	0x3dd394d2	0.103311196
33	0xbc48ad9a	-0.012248421
34	0x3d2af27e	0.041735165
35	0x3d2dd820	0.04244244
36	0xbd24a09d	-0.040192235
37	0x3db347dd	0.08753941
38	0xbd843c0e	-0.06456767
39	0xbcb62cf3	-0.02223823
40	0x3d446a8e	0.04795318
41	0x3db0dd79	0.086359926
42	0x3cce84f5	0.025209883
43	0x3dc8dc09	0.098075934
44	0x3be29586	0.0069147972
45	0xbd39f844	-0.04540278
46	0x3dc4b5df	0.09605002
47	0x3d230187	0.03979638
48	0xbd996af6	-0.07491104
49	0x3db1e003	0.08685305
50	0xbd293440	-0.041309595
51	0xbd6942dd	-0.05694853
52	0xbd56b338	-0.05241701
53	0x3d8e7cc9	0.06957395
54	0xbd8a133b	-0.06741949
55	0xbd08a379	-0.033359025
56	0x3dd49770	0.10380447
57	0xbd9022f0	-0.07037914
58	0x3dc401ba	0.09570642
59	0xbb974218	-0.0046160333
60	0xbd9d054b	-0.07667025
61	0x3dd01aac	0.10161337
62	0xbdce9606	-0.100872084
63	0x3da1f712	0.07908453
64	0xbd66c154	-0.056336716
65	0xbdc9e358	-0.098578155
66	0x3db46a43	0.0880933
67	0x3d8fdb19	0.070242114
68	0x3d10867f	0.035284515
69	0x3d8712ac	0.06595358
70	0xbd2bde5f	-0.041960116
71	0x3bd16960	0.0063907355
72	0xbc63b63c	-0.0138984285
73	0x3bcbc30f	0.006218321
74	0xbcddc64b	-0.027072093
75	0x3dbdeddd	0.092738844
76	0xbcc5f938	-0.024166688
77	0xbd5aa36e	-0.053378515
78	0xbd971a45	-0.073780574
79	0x3dc30b03	0.09523585

net.net.0.downsample.weight f4 [80, 3, 1]
0	0xbc0e06fa	-0.0086686555
1	0xbb4e1327	-0.003144452
2	0xb94ae390	-0.00019348995
3	0x3b12713b	0.0022345323
4	0x3c329a58	0.010901056
5	0x3be3c0c9	0.006950472
6	0x3c3c033b	0.01147538
7	0xbcd04774	-0.025424697
8	0xbc745aae	-0.014914198
9	0x3aa5e93d	0.0012658011
10	0x3c82b665	0.015956113
11	0xbbdda054	-0.0067634974
12	0xbc7d3677	-0.01545488
13	0x3cee5de0	0.029097497
14	0xbbe62aa6	-0.007024127
15	0x3bed7430	0.0072465166
16	0x3c644f13	0.013934868
17	0x3c03d70f	0.008046879
18	0x3aed8d83	0.0018123839
19	0x3c9b2194	0.01893691
20	0x3cf798fe	0.03022432
21	0xbc250766	-0.010072565
22	0x3be47ccf	0.006972886
23	0xbb8ab8f6	-0.004233475
24	0xb99dea20	-0.0003011981
25	0x3b135ca3	0.0022485636
26	0xbbd0064b	-0.0063484064
27	0xbcc9786f	-0.02459356
28	0xbc92ff8a	-0.017944116
29	0x3a79245c	0.0009504014
30	0x3c8f65a6	0.017504524
31	0xbca0fd21	-0.019651951
32	0x3c56865d	0.013093558
33	0x3ccde9c7	0.025135888
34	0xbcbf2d3d	-0.023337001
35	0xbbcd17d5	-0.0062589445
36	0x3c936df6	0.01799677
37	0x3af99b07	0.0019043394
38	0xbc51a9ee	-0.012796862
39	0x3b67ba40	0.0035358816
40	0xbc5f8ebd	-0.013644871
41	0xbc611ccf	-0.013739779
42	0x3c6de91c	0.01452091
43	0xbbafbb25	-0.0053628855
44	0xbbc6f9cb	-0.006072258
45	0xbaa72ff2	-0.0012755378
46	0xbcf0f843	-0.029415255
47	0xba237079	-0.0006234716
48	0x3c2f7b29	0.010710516
49	0x3b1a3ba2	0.002353408
50	0x3ba565cf	0.005047537
51	0xbcad3d9d	-0.021147544
52	0x3c59a4ef	0.013283952
53	0xbc8a1b26	-0.016858649
54	0x3c7f2cb3	0.015574622
55	0xbb95ab31	-0.0045675267
56	0x3b01e4da	0.0019820244
57	0x3cb37a57	0.021908922
58	0xbb846e97	-0.0040415036
59	0xbb948a5a	-0.0045330944
60	0xbb0c04bb	-0.0021365124
61	0xbc40677f	-0.011743425
62	0x3a54e4c2	0.0008121246
63	0xbb4543eb	-0.0030100297
64	0xbbe42fff	-0.0069637294
65	0x3b3ad232	0.0028506634
66	0x3abd552b	0.0014444938
67	0x3c81520a	0.01578619
68	0x3c94acb9	0.018148767
69	0xbcc07813	-0.023494756
70	0xba1fcf34	-0.00060962443
71	0x3c20b9e9	0.009809949
72	0x3aa4110f	0.0012517291
73	0x3c045690	0.008077279
74	0xbc239760	-0.009984821
75	0x3c3ad112	0.011402385
76	0x3c9f904c	0.019477986
77	0x3c326474	0.010888208
78	0x3b787401	0.003791094
79	0x3be657a0	0.0070294887
80	0xbb0d3a14	-0.002154951
81	0xbb813a95	-0.003943751
82	0x3c2a596e	0.010397298
83	0x3c67ee36	0.014155915
84	0xbc32452b	-0.010880749
85	0x3d002ce7	0.031292822
86	0x3bc8feb2	0.0061338777
87	0xbce3ef36	-0.027824026
88	0xbba52b21	-0.0050405418
89	0x3c771b15	0.01508214
90	0x3b4c8a9d	0.003121055
91	0x3bcb91bd	0.0062124417
92	0xbc621a8c	-0.013800275
93	0xbc519709	-0.012792357
94	0x3c82e1e4	0.015976854
95	0x3c490a9f	0.012270599
96	0x3cf1a4f1	0.029497596
97	0x3b876c02	0.0041327486
98	0xbc591fab	-0.013252179
99	0xbc199af2	-0.009375321
100	0xbc8eca03	-0.017430311
101	0xbc003c67	-0.007826901
102	0xbc50c118	-0.01274135
103	0x3bb2263e	0.0054366877
104	0x3c82038f	0.015870837
105	0x3c2c85b9	0.010529929
106	0x3b369650	0.002786059
107	0x39841df0	0.00025199307
108	0xbc22ed35	-0.00994425
109	0x3c513639	0.012769275
110	0x3cd6a893	0.02620343
111	0x3c23c07f	0.009994625
112	0xbbbac29e	-0.0056994697
113	0x3b226d09	0.0024784228
114	0xbc66e2d9	-0.014092171
115	0x3bb43bb7	0.0055002826
116	0xbbf16ffe	-0.007368087
117	0x3c9944ae	0.018709507
118	0xbab61830	-0.0013892706
119	0x3b61d7ac	0.0034460826
120	0xbc33b4a5	-0.010968362
121	0x3bb24abc	0.005441038
122	0x3b13709c	0.002249754
123	0x3c037029	0.0080223465
124	0xb9f00426	-0.00045779458
125	0xbbfdd624	-0.007746475
126	0xbb3bc825	-0.002865323
127	0x3c5534f9	0.013013118
128	0xbc23fc28	-0.010008849
129	0x3ccaf693	0.024775779
130	0xbc8d85b6	-0.017275672
131	0x3b024c3f	0.0019881872
132	0xbca6f22c	-0.020379148
133	0x3cbf7f46	0.023376118
134	0xbb82c6c5	-0.0039909803
135	0x3b46eba7	0.0030352862
136	0x3cb7f48e	0.02245548
137	0xbbc52230	-0.0060160384
138	0x3a9cee42	0.0011972862
139	0x3cb3cf32	0.021949384
140	0x3b88ad39	0.0041710404
141	0x3ca9472b	0.020663818
142	0xbc6b1a70	-0.014349565
143	0xbc54dff0	-0.012992844
144	0x3c6d944a	0.014500687
145	0xba650778	-0.00087367697
146	0x3aad2390	0.0013209451
147	0xbc610114	-0.013733167
148	0x3b58e704	0.003309668
149	0xbb73a548	-0.0037177373
150	0xbca8ee90	-0.020621568
151	0x3c5341c8	0.012894101
152	0x3ca568a3	0.020191496
153	0xbbdd511a	-0.006754053
154	0xba2730ca	-0.00063778146
155	0xbb0377be	-0.0020060386
156	0xbc88d30b	-0.016702196
157	0xbb97d43f	-0.004633456
158	0x3b0d828e	0.002159271
159	0x3a1145b5	0.0005541698
160	0x3c8ca046	0.017166268
161	0x3c9c7937	0.019100768
162	0xbc6041d6	-0.0136875715
163	0x3c605fcd	0.013694716
164	0x3c8666ca	0.016406436
165	0xbc959fc6	-0.018264662
166	0x3be81d0a	0.00708354
167	0x3bfce0f1	0.007717245
168	0x3d009144	0.031388536
169	0x3bc683d2	0.0060581947
170	0xbbe42138	-0.006961968
171	0xbc155b85	-0.009116058
172	0x3cf192e6	0.029488992
173	0x3c2f0aa5	0.01068369
174	0xbd06d87c	-0.0329213
175	0xba222661	-0.00061855285
176	0x3b567b84	0.003272743
177	0x3c601189	0.013676056
178	0xbb9e8989	-0.004838173
179	0xbc04dbf4	-0.008109082
180	0xbc860d83	-0.016363865
181	0xbae33075	-0.0017333167
182	0xbbb6b37b	-0.005575595
183	0xbbf56906	-0.0074893264
184	0x3c8405d4	0.01611606
185	0x3c6df0e0	0.014522761
186	0x3c78c595	0.015183826
187	0xbc729c81	-0.014807821
188	0x3c321cd8	0.010871135
189	0xbbfb3a03	-0.0076668276
190	0xbaf0d5b8	-0.001837424
191	0xbad615d6	-0.0016333412
192	0x3c03bbc5	0.008040373
193	0xbc1a1170	-0.0094035715
194	0xbc3c5267	-0.011494256
195	0x3c1c6773	0.009546149
196	0xbc9e9ebf	-0.019362805
197	0x3af85cb4	0.0018948526
198	0xbc57a28e	-0.013161315
199	0xbbfc2a6d	-0.0076954872
200	0xb9d33e1c	-0.0004029133
201	0xbca26d9c	-0.019827656
202	0x3c6fae88	0.014629014
203	0x3c8c76eb	0.017146548
204	0x3be2cc21	0.0069213067
205	0xbb91aa63	-0.0044453605
206	0xbc57ce1c	-0.013171699
207	0x3b387f89	0.0028152189
208	0xbb89e7e4	-0.0042085517
209	0x3ac11b70	0.0014732908
210	0xbafd8fae	-0.0019345188
211	0x3bc20fa5	0.005922275
212	0x3d0ae72d	0.033911873
213	0x3ba8afc0	0.005147904
214	0x3b23b80e	0.0024981531
215	0xbbbbeb6b	-0.005734851
216	0xbc9c76aa	-0.019099552
217	0x3ba95737	0.0051678675
218	0x3c86d7fc	0.016460411
219	0xbccae36f	-0.024766652
220	0x3b846aca	0.0040410506
221	0x3c4a6a78	0.012354486
222	0xbb29e7fd	-0.002592563
223	0xbc08efa1	-0.008357913
224	0xbc5d594b	-0.013510059
225	0x3ca5280f	0.020160703
226	0x3b9335c8	0.004492495
227	0xbb461f42	-0.0030231033
228	0x3b99ba53	0.004691401
229	0x3b585b1b	0.0033013287
230	0xbcff16c9	-0.031138794
231	0xbc4698e1	-0.01212141
232	0xbbed3b96	-0.007239769
233	0x3b602c26	0.0034206002
234	0xbbe2c8fe	-0.006920933
235	0x3ccd94ef	0.025095431
236	0x3adffbcd	0.0017088592
237	0xbb4544dd	-0.003010086
238	0x3922aae7	0.0001551319
239	0x3bb37559	0.0054766354

net.net.0.downsample.bias f4 [80]
0	0xbef00e92	-0.46886116
1	0xbee634c4	-0.44962132
2	0xbec5d940	-0.3864231
3	0xbeffbd52	-0.49949127
4	0x3e4609af	0.19339631
5	0x3ef534df	0.478919
6	0x3e271165	0.16315229
7	0xbf0aa82d	-0.54162866
8	0xbf11d653	-0.5696766
9	0x3eea9c01	0.45822147
10	0x3f053746	0.52037466
11	0xbe03b971	-0.12863709
12	0x3e2a674a	0.16640964
13	0xbea92a87	-0.33040258
14	0xbc6e7a62	-0.0145555455
15	0xbe9099f6	-0.28242463
16	0x3e5e3fa5	0.21703966
17	0xbe1b6e96	-0.15178904
18	0xbe9b1473	-0.3028904
19	0xbd43bdf4	-0.047788575
20	0xbe4cede9	-0.2001263
21	0xbe7ce97a	-0.24698439
22	0xbf00924b	-0.50223225
23	0xbd7c5f78	-0.061614484
24	0x3c85919e	0.016304787
25	0xbdaedb7f	-0.08537959
26	0x3e691b27	0.22764264
27	0x3e86825a	0.26271325
28	0xbeec8ff0	-0.46203566
29	0xbeb1ce18	-0.3472755
30	0x3ecd4309	0.40090206
31	0x3cd1fce3	0.025633281
32	0x3e0d12ce	0.13776705
33	0x3e3b5af9	0.18296422
34	0xbe5469f6	-0.20743546
35	0x3c818e2a	0.01581486
36	0xbdf8da43	-0.12151005
37	0x3db0fa4d	0.08641491
38	0xbc2bca39	-0.010485225
39	0x3eedb228	0.46424985
40	0xbeb911c4	-0.36146367
41	0xbd03dd8f	-0.032193717
42	0x3d7706e5	0.06030931
43	0xbe9af947	-0.3026831
44	0x3da175f7	0.07883828
45	0xbdf4dbb8	-0.119559705
46	0xbcb38ac7	-0.02191676
47	0x3ef10b83	0.47079095
48	0x3e87d42a	0.26529056
49	0xbe6f39b0	-0.2336185
50	0xbf0c3cf4	-0.5478051
51	0x3ee36b0d	0.4441761
52	0x3eb051c8	0.34437394
53	0xbf014e66	-0.5051025
54	0xbeea75f1	-0.45793107
55	0xbeb47125	-0.35242572
56	0x3f0c04bc	0.54694724
57	0x3e1f52f7	0.15558992
58	0x3e437ff5	0.1909178
59	0x3e0f71ff	0.1400833
60	0x3ede77c6	0.43450755
61	0xbec02a5f	-0.37532327
62	0xbd896d1d	-0.06710265
63	0xbe2efc6e	-0.17088482
64	0xbd22e7d8	-0.039771885
65	0xbeabeaa0	-0.33577442
66	0xbece77e9	-0.4032586
67	0x3e957183	0.29188165
68	0x3e76b6f7	0.24093233
69	0xbec50cd3	-0.38486347
70	0x3b177ad7	0.002311399
71	0xbea2cb65	-0.31795803
72	0xbe8adf3d	-0.27123442
73	0xbe13fd9d	-0.14452215
74	0x3e574e36	0.21025929
75	0xbe8e90e5	-0.2784492
76	0x3f0a133b	0.53935593
77	0xbd140ac8	-0.036143094
78	0x3ef253c2	0.47329527
79	0x3e46104a	0.19342151
